PyTorch/tutorial/cifar_net.pth (torch, 251401 bytes, 10 tensors)

conv1.weight f4 [6, 3, 5, 5]
000000 06 e2 03 bf 69 39 0c bf 5a b3 22 bf 90 b3 03 bf
       -0.5151676 -0.547751 -0.6355492 -0.51445866
000010 d7 1c a2 be 53 f1 14 3d ab 73 12 3e 3f 40 fb 3c
       -0.31662628 0.036362957 0.14301936 0.030670283
000020 f3 79 94 3e 96 49 44 3e e5 51 87 3e 32 d6 8f 3e
       0.2899929 0.19168696 0.26429668 0.28093106
000030 89 ea 0a 3f c4 17 02 3f e4 0a d5 3d 82 2f f4 3d
       0.5426412 0.50817513 0.10402468 0.11923124
000040 d1 90 4f 3a b8 2c 36 3d ce 25 cb bd 06 88 4f be
       0.00079180027 0.04447624 -0.0991932 -0.20266733
000050 5f 3f 29 3e 9a c5 56 bb 38 6d ca bd 86 30 d2 3d
       0.1652808 -0.0032771588 -0.09884113 0.10263161
000060 d8 f3 7f bc 3e 88 d7 bd c2 b0 16 be 8c 25 b4 be
       -0.015622102 -0.10524033 -0.14715865 -0.35184896
000070 e1 e4 aa bd 7a ce a1 bd 62 19 8e 3e 39 69 1d 3e
       -0.083444364 -0.079007104 0.2775374 0.1537217
000080 25 65 20 3e bf 19 80 3e cb ec 1e 3e 36 93 9d 3e
       0.15663584 0.25019643 0.15520017 0.30776376
000090 31 f2 d1 3e c7 f5 aa 3e b2 d1 c4 3e ea 17 72 3d
       0.4100509 0.33390638 0.38441235 0.059104837
0000a0 77 eb 45 be 91 5f 60 be 29 94 a1 be 03 fb 2d be
       -0.19328104 -0.21911456 -0.3155835 -0.16990285
0000b0 63 94 c1 be af d9 30 3d 90 d2 98 be 10 94 90 be
       -0.37808523 0.04317635 -0.29848146 -0.28237963
0000c0 bd de e0 3c 6a f2 f0 bd 73 7c de 3d a4 66 e7 bd
       0.02744996 -0.11764987 0.108635806 -0.11298874
0000d0 09 f1 22 be 82 d1 6c bd 91 8b 0f 3e 0b a0 15 3e
       -0.1591226 -0.05781699 0.14018084 0.14611833
0000e0 a0 3f 1f 3e 18 65 04 3e 99 b8 66 3e e2 c4 08 3e
       0.15551615 0.12929189 0.22531356 0.13356355
0000f0 a9 7a 2c 3e 88 f5 3c 3e b1 3d 95 3e bb 27 1d 3e
       0.16843666 0.18453038 0.2914863 0.15347187
000100 46 b7 00 3d 8a bb 6b be 81 d1 31 be 41 29 a9 be
       0.031424783 -0.23020759 -0.17365076 -0.33039287
000110 21 d0 08 be 21 c1 54 be b2 b8 e5 bd 68 f1 08 be
       -0.13360645 -0.20776798 -0.112168685 -0.13373339
000120 cd 0a 6d be 22 05 d6 3d 5e b0 ad 3c 86 ee 0a be
       -0.23148651 0.10450198 0.021202262 -0.13567552
000130 ec 88 ad bc 80 20 5a bd a2 ab 43 3d f8 d8 45 3e
       -0.021183454 -0.05325365 0.047771104 0.19321048
000140 a4 00 b0 3d 51 f6 6f 3e 40 c8 af be 7b d9 bf be
       0.08593872 0.23433806 -0.34332466 -0.37470612
000150 68 82 53 3e 09 bf 8e 3e 03 b0 e5 3e 0e 0b be be
       0.20655215 0.27880123 0.4486085 -0.3711781
000160 df b0 07 bf c7 e8 31 3e c5 42 97 3d 15 ec d8 3d
       -0.5300426 0.17373954 0.07385782 0.10591904
000170 cd eb aa be 91 85 a2 bd 27 a6 a3 3d b5 c3 3c be
       -0.33383027 -0.07935632 0.079906754 -0.18434031
000180 cf d9 bc bc 4d 71 8f be 55 c6 f1 3d d9 8c e5 3d
       -0.023053078 -0.2801613 0.11805407 0.11208505
000190 e6 a0 7d 3d 5f ce 1e 3c f1 9b 64 be 65 88 ad bd
       0.061921023 0.009692757 -0.22325112 -0.08473281
0001a0 c1 f9 c0 3d 4a 9e aa 3e a1 0a 93 3e 6a 92 cc be
       0.09422637 0.3332389 0.28719047 -0.39955455
0001b0 34 03 02 bf 6d fa 5a 3e f9 75 b6 3e 06 35 be 3e
       -0.5078614 0.21384592 0.3563688 0.3714983
0001c0 6b 98 35 be 97 19 0b bf 4d b4 88 3d f5 0d 97 3e
       -0.17733924 -0.5433592 0.06675015 0.29502836
0001d0 c2 67 da 3d 0c 00 74 be 00 bd fd bd fa 4b 1b 3e
       0.106643215 -0.23828143 -0.123895645 0.15165702
0001e0 41 39 b2 3d 60 7a a3 3d 9f bc 25 be 62 21 1a 3e
       0.087023266 0.079823256 -0.16185234 0.15051797
0001f0 65 60 38 3e b8 e1 ae bd ac 7c 9a 3d 53 a5 29 be
       0.18005522 -0.08539146 0.075433105 -0.16566972
000200 64 ba f3 bd 1b 67 2b 3c ed 7c e0 3d d1 21 f6 3e
       -0.119007856 0.010461594 0.10961328 0.48072675
000210 3b c8 a9 be 2f 84 bd be 69 2a 02 3e 01 9f af 3e
       -0.33160576 -0.3701491 0.1271149 0.34300998
000220 4f b2 ed 3e ea ae 92 be 7d 2c 09 bf f8 a1 58 3d
       0.464251 -0.28649074 -0.5358351 0.05288884
000230 85 f8 89 3e 60 bc 04 3e de 75 4c be f8 5c 9e bd
       0.26947418 0.12962484 -0.19966838 -0.07732576
000240 04 36 31 3e 2a 2a b2 3d e7 f5 4f bd a3 f2 01 be
       0.17305762 0.086994484 -0.05077162 -0.12690215
000250 f9 54 06 bd 24 c8 b6 3c 76 1d b0 3d d4 5f d1 3e
       -0.03279588 0.022312231 0.08599369 0.40893424
000260 64 22 ef 3e c7 7d 70 3e b2 ab 9b 3e bc 33 51 bd
       0.46705925 0.2348548 0.3040443 -0.05107473
000270 67 f8 02 b9 9a 2a a4 3e 00 ed 83 3e 7f 69 c6 3e
       -0.00012490303 0.32063752 0.25766754 0.38752362
000280 d1 9d 2b be 2a 22 98 be d7 6b c5 be 9b c7 51 be
       -0.16759421 -0.29713565 -0.38558838 -0.204863
000290 3d d1 b5 bc 5d 0b e1 bd 5c e4 c0 bd 81 14 a0 be
       -0.0221945 -0.109884955 -0.09418556 -0.31265643
0002a0 b3 7f 99 be 2e 19 3b be 87 e1 81 bc a8 ea fb 3c
       -0.2998024 -0.18271324 -0.01585461 0.030751541
0002b0 0a e9 c5 3c 8b 10 e4 bd ce b9 61 be 2c be 4a be
       0.024158973 -0.11135968 -0.22043535 -0.19799107
0002c0 26 a3 c6 bd dc ee 23 3c bc bf 0b 3c 7d 39 01 3e
       -0.09699087 0.010005679 0.0085296 0.12619586
0002d0 a5 15 41 be ff 70 1f be d5 54 e8 bb 7e 07 11 3d
       -0.18855913 -0.15570448 -0.007090191 0.035407536
0002e0 df a2 60 3e a2 e8 87 be e0 75 a6 be dc 5f b6 be
       0.2193713 -0.26544672 -0.32511806 -0.3562001
0002f0 8f ca 9b be 2a 60 73 bc c5 82 0a bd fd 90 1d be
       -0.30427977 -0.01485447 -0.033816118 -0.1538734
000300 a0 c3 b1 be 52 99 af be ae 5b 29 be b1 c9 3c 3e
       -0.34719563 -0.34296662 -0.1653888 0.18436314
000310 49 b6 8e 3e 8a 5f 3f 3e 62 1e 68 3d ba 17 17 3c
       0.27873448 0.18688789 0.0566696 0.009221965
000320 de 5e 98 bb a4 7f 41 3c fe 71 a5 3b a8 f6 30 bd
       -0.004649981 0.011810217 0.0050489893 -0.04320398
000330 50 f0 0a 3e 62 1c 4f bd ed a4 72 3c 60 67 fe bb
       0.13568234 -0.050564177 0.014809829 -0.007763788
000340 69 d3 77 3d f5 5c 5f 3e c0 13 bd 3c 8c df 21 be
       0.06050435 0.21812804 0.023080707 -0.15807933
000350 df 15 4a be 8c 45 ce 3b dc f8 69 3e dd f4 0f 3e
       -0.19734906 0.0062949117 0.22848839 0.14058252
000360 5f a8 54 bd ec 90 c2 bd 37 e8 6a be d0 bf 0c be
       -0.051918384 -0.09500298 -0.22940145 -0.13745046
000370 9d 50 c9 3e 49 41 d1 3e 8a de 83 3e fc f1 ca 3d
       0.39319316 0.4087012 0.2575572 0.09909436
000380 c4 5c 92 bc 35 34 0a be 81 54 20 be 33 70 5a bd
       -0.0178665 -0.13496478 -0.15657236 -0.053329658
000390 a2 76 f5 3c 83 7f 17 be f7 27 cb bd 5f a0 13 be
       0.029963795 -0.14794736 -0.09919732 -0.14416645
0003a0 37 b7 31 be b2 44 47 be 38 01 63 be 2e 1b 6b be
       -0.17355047 -0.19459799 -0.22168434 -0.22959587
0003b0 86 c3 1d be 2f b9 7e be 61 4d 8f be 3c 4a 7b be
       -0.15406618 -0.2487533 -0.27988723 -0.24540037
0003c0 4e c5 6a be 35 e9 8c be 80 b4 42 be 49 a5 58 be
       -0.22926828 -0.27521673 -0.19014168 -0.21156801
0003d0 d3 ed 60 be 41 12 98 bd 66 1b 3c bd 42 75 67 bd
       -0.21965723 -0.07425357 -0.045924567 -0.05650831
0003e0 b1 83 4b bd 9e 1b 0b 3c da 3f 87 bd d8 9c 18 3d
       -0.049686138 0.008490471 -0.066039756 0.037258953
0003f0 a6 e1 72 3d ee 01 fe 3d 7f 12 cd 3d d8 75 c0 bd
       0.059297226 0.12402712 0.100132935 -0.09397477

conv1.bias f4 [6]
000000 7c af 9d be 23 16 9d bd 18 e4 fc be e1 58 c4 3e
       -0.30797946 -0.07670238 -0.49392772 0.3834906
000010 fd 71 8b 3d 41 d5 96 be
       0.06808851 -0.29459575

conv2.weight f4 [16, 6, 5, 5]
000000 f5 f5 5a 3d d9 18 a4 bd c0 c8 65 3d 5a a4 bc bd
       0.05345722 -0.08012552 0.056099653 -0.09211035
000010 29 b7 92 bd c5 0d 60 bd 89 51 28 bd b9 69 1a 3d
       -0.07163841 -0.05470063 -0.041093383 0.03769848
000020 bf 70 13 be 4f 36 dc bd dc c2 63 bc 8d cc aa 3b
       -0.14398478 -0.10752546 -0.013901439 0.0052123726
000030 a9 47 96 bd e7 06 00 be 28 4c 60 bd 57 ef 20 bd
       -0.07337887 -0.12502633 -0.05476013 -0.039290752
000040 32 ef a4 bc 14 79 70 bd 3e 07 30 be e5 83 43 bd
       -0.020133588 -0.05870922 -0.17190263 -0.047733206
000050 c6 b5 0b be 76 02 c6 bd a5 d2 28 be be 32 28 be
       -0.1364356 -0.09668438 -0.16486605 -0.16425607
000060 11 3f d1 bd 86 d5 64 be f5 5a ef bd e2 20 fe 3d
       -0.10217107 -0.22347078 -0.116872706 0.12408616
000070 2b e9 93 3d 83 b4 16 bb 22 a2 24 be f7 48 05 be
       0.07222208 -0.0022995777 -0.16077474 -0.13016115
000080 df 7c ef 3d 49 df 29 3e fa 6c ad bd 9a 16 67 be
       0.11693739 0.16589083 -0.08468051 -0.22567216
000090 f7 31 65 be 39 5a 11 3d 29 00 81 3e 8e a6 e1 bd
       -0.22382341 0.035486434 0.25195435 -0.11018096
0000a0 02 16 40 be 2f 32 34 be a7 89 08 be a7 98 ab 3e
       -0.18758395 -0.17597269 -0.1333376 0.33514902
0000b0 05 4d 9c bc f1 3a ee bd 20 32 77 bd fd 59 8b bd
       -0.019079695 -0.11632336 -0.060350537 -0.06804273
0000c0 0f c6 b7 3e 7f 8e f0 3d 1c 58 81 3c 24 39 b9 bd
       0.35893294 0.11745929 0.015789084 -0.09044102
0000d0 88 4b 44 bd 71 4a 3e bc e1 b5 6b 3d 02 ed 5e 3c
       -0.047923595 -0.011614428 0.0575465 0.013606312
0000e0 d1 de 04 bd c8 4f 89 bd b8 10 91 3d de fd f2 3c
       -0.032439057 -0.0670467 0.07083267 0.029662069
0000f0 55 de 5b bd 09 5d d2 bb 8a 46 35 bd 5f 16 a6 bc
       -0.05367883 -0.006419782 -0.044256724 -0.02027434
000100 d2 65 c0 bd e8 14 31 bc b0 b4 41 ba 81 25 9d bd
       -0.09394421 -0.010808207 -0.000738929 -0.07673169
000110 da 78 b3 bd 3a 11 e7 bc 87 92 fb bd e3 29 0a be
       -0.08763285 -0.028206456 -0.12283807 -0.13492541
000120 a5 37 20 bd 8f 15 c3 bd 7d 35 93 bd aa d6 39 3e
       -0.039115567 -0.09525596 -0.071879365 0.18148294
000130 8c 92 40 3e aa 98 16 bd fb cf e5 bd a5 ad 1c be
       0.18805903 -0.036766686 -0.1122131 -0.15300615
000140 fb f0 55 3e 49 23 07 3e 6e ec a7 3d e4 a9 42 be
       0.20892708 0.13197054 0.08199392 -0.1901012
000150 cf 8a 80 be f6 4b 53 3e 61 4c 02 3e 08 57 24 3d
       -0.25105903 0.20634446 0.12724449 0.040122062
000160 53 b5 40 be 1f 1c 7f be 11 2f a0 3d bc 9b 12 3e
       -0.1881917 -0.24913071 0.07821477 0.1431722
000170 51 02 99 bd 18 3c d3 bd de 96 1f be ef c8 06 3d
       -0.07471145 -0.10314196 -0.15584895 0.03290647
000180 a3 fb 53 bc 22 aa 99 bd 0e 0c 2f be cd b3 2d be
       -0.012938413 -0.075031534 -0.17094442 -0.1696312
000190 db 9f 76 bc ec 6d 33 3e b6 35 ba 3d 96 92 d2 3d
       -0.015052761 0.175224 0.09092276 0.10281865
0001a0 62 58 a5 bd 75 37 92 bd 06 98 2d 3e 9e 62 0f 3e
       -0.08073498 -0.07139484 0.16952524 0.14002463
0001b0 ff 19 f5 3a 27 27 9a bd 59 16 04 bd 27 a8 c1 3c
       0.0018699764 -0.07526999 -0.032247875 0.023639752
0001c0 e4 77 51 3e 56 17 10 bd 5c 41 26 be f1 bb 43 bc
       0.20455891 -0.035178505 -0.1623587 -0.011946664
0001d0 ff 40 4c bd fe 93 7f 3c e7 4e 82 3d ff a5 4e be
       -0.049866673 0.015599249 0.06362706 -0.2018051
0001e0 a5 38 64 bb b4 fa 96 bd d7 a7 43 3d 4d 83 6a 3d
       -0.0034823802 -0.073720366 0.047767486 0.057254124
0001f0 17 a2 1c be cc d6 dc 3d 12 f1 83 bd 4e bd f3 bd
       -0.15296207 0.10783157 -0.06442465 -0.119013414
000200 e0 94 74 bd 28 4f 45 3e 81 45 3b 3e 1e 66 42 bb
       -0.05971229 0.19268477 0.18288232 -0.0029662917
000210 d8 d2 fb bd d1 3b 0d be 70 a8 64 3e e3 37 29 3e
       -0.12296075 -0.1379235 0.22329879 0.16525225
000220 a1 22 e4 3c 26 a8 30 be b3 f2 17 be c5 20 77 3e
       0.027848544 -0.17251644 -0.14838676 0.24133594
000230 60 84 c5 3d fd 3f 53 bc a8 a5 55 be 7b f7 b3 bd
       0.09644389 -0.012893674 -0.20863974 -0.087874375
000240 91 f9 7e 3d 27 0a 2c 3e 1d 45 c0 3d 99 27 8b bd
       0.062249724 0.16800748 0.09388182 -0.06794662
000250 6c e5 22 be 2b 9d 99 3d bd f3 13 3e 0c 79 96 3d
       -0.1590783 0.075006805 0.14448448 0.073473066
000260 7a 92 b4 3c a9 18 11 3c e9 4d 19 3d 1c 02 03 bc
       0.022042502 0.008855977 0.037427817 -0.007996108
000270 4b 26 c6 3c 23 46 76 bd 93 31 a4 bc 53 4a a9 bb
       0.024188181 -0.06012548 -0.02004317 -0.005166331
000280 24 a9 da bc d4 8c 4c bc ff 29 23 bd 55 13 00 be
       -0.02669198 -0.012484748 -0.039834972 -0.12507375
000290 ed 88 7b bd 02 2d 13 3d e9 a4 9a bc 33 ae b9 bd
       -0.06140988 0.035931595 -0.018877463 -0.09066429
0002a0 52 33 09 bc de a8 51 3b a9 77 7e 3e 7c ef a2 3d
       -0.008374052 0.0031991522 0.24850334 0.07955834
0002b0 2a bf 88 3d 14 05 bb 3d 23 4c 19 3d b5 70 94 3c
       0.06677087 0.09131828 0.037426125 0.01812015
0002c0 06 e3 b6 3d aa 81 95 3d d0 d0 00 be 9d 30 3a 3e
       0.0893002 0.07300122 -0.12579656 0.18182607
0002d0 b9 a5 54 bd 8e 91 50 3c fb 9d 95 3e 58 a7 9b be
       -0.051915858 0.012730015 0.29222092 -0.3040111
0002e0 3d 2c b5 3e 56 1b 9e bd 09 35 89 3c 7f cb e1 3e
       0.35385314 -0.07720058 0.016748922 0.44100568
0002f0 dc 62 d8 be 1a 04 c0 3e de 68 c6 bd 91 a6 0b bd
       -0.42262924 0.3750313 -0.096879706 -0.034094397
000300 ff a1 c4 3e d3 1d c2 be 63 a5 aa 3e e2 75 6a be
       0.38404843 -0.3791338 0.33329305 -0.22896531
000310 4f ad f5 bd 38 c2 1e 3e 0c 6b cd be b2 f1 49 bd
       -0.119959466 0.15503776 -0.40120733 -0.049302764
000320 dd 68 38 3a ae 9a a5 3d 0b 20 93 3b e0 e6 31 3d
       0.0007034669 0.080861434 0.004489904 0.04343307
000330 bc 6c 22 3e 9d cb 85 bd b7 1f 99 bd 36 97 8b 3c
       0.15861791 -0.06532977 -0.07476752 0.017039876
000340 cf 6c 71 3c e6 ad 53 3d 94 49 94 bd f6 f2 0f bd
       0.014735415 0.051679514 -0.072405964 -0.035143815
000350 4b 2b 4f bc 1c 6e 2c bd f8 58 16 bd 18 e5 43 3e
       -0.012644599 -0.042097196 -0.03670594 0.19130361
000360 d0 d3 39 3d 9a f2 7e 3d c1 42 89 3d 1d 9b 27 bc
       0.045368016 0.06224308 0.067021854 -0.010229853
000370 02 29 19 be 25 af e5 bd 50 09 38 bd 0c 0b af bd
       -0.1495705 -0.11215047 -0.044930756 -0.08547029
000380 e7 32 12 be e9 6e ce 3d 57 79 e2 bc f4 f8 ab bd
       -0.1427723 0.10079748 -0.02764575 -0.083970934
000390 de 60 53 bd 89 e5 d3 ba ff 61 c9 3b 8c bd 37 bd
       -0.05160605 -0.0016166429 0.0061457152 -0.0448585
0003a0 d6 9d 21 3c 0a 26 56 bd 8f ef a5 3d dd c4 a0 bc
       0.009864291 -0.05228237 0.08102333 -0.019625122
0003b0 67 9f a6 bc 0b ba e9 3d cc 86 29 3d d4 85 3c 3b
       -0.02033968 0.11412438 0.041388318 0.0028766291
0003c0 f8 c4 a9 bd 7b 56 83 3d 85 97 99 3d c4 fd 9e 3d
       -0.08289522 0.06412979 0.07499603 0.07763246
0003d0 ce 3e 30 3c 0f 26 a4 bd 8e 96 eb 3c 96 6f a0 bd
       0.010757161 -0.080150716 0.028758314 -0.07833783
0003e0 9c 39 5f bc f5 23 2e be 88 6d 71 3d 28 e8 21 3e
       -0.013624575 -0.17005904 0.058942348 0.15811217
0003f0 20 bb 16 3e ed 74 8e 3d 8c 76 c7 3d dd 56 80 bd
       0.1471982 0.069558956 0.09739408 -0.06266568

conv2.bias f4 [16]
000000 21 e8 aa bd bc db 47 bf 83 1f 52 3e a4 1c 50 3f
       -0.08345056 -0.78069663 0.20519833 0.812937
000010 e8 fa f0 be 55 75 37 3e 0b 5b f7 3d 6e b2 86 3e
       -0.47066426 0.17915852 0.12077912 0.26308006
000020 3d 41 83 3f 46 c1 9a bd 5b b8 a1 be 1e 3d 11 3e
       1.0254284 -0.07556395 -0.31585965 0.1418347
000030 27 df 88 be 77 1e 43 be a6 6d 97 3e 2a 7f 6b be
       -0.26732752 -0.1905459 0.29575843 -0.22997728

fc1.weight f4 [120, 400]
000000 70 a3 fe 3d 45 a2 34 3d c8 c7 2b bd 68 00 e9 3b
       0.12433517 0.044100065 -0.041938573 0.007110644
000010 9c e7 d0 3c 67 9a ad 3d 1f 71 bb 3d 72 96 fd ba
       0.025501065 0.084767155 0.091524355 -0.0019347204
000020 8c 71 5a 3d 88 c7 45 bc 04 8e af 3a 2a 35 5d 3d
       0.053330943 -0.012071498 0.0013393764 0.05400578
000030 2a da e7 3c 61 3e ce 3c 7d cc a4 3c 76 00 73 bd
       0.02830227 0.025176229 0.020117039 -0.05932661
000040 9d 8c 9b 3c 8e 69 c0 bd 92 cd 92 bd 99 12 95 3b
       0.018987948 -0.09395133 -0.07168116 0.004549336
000050 04 d6 a1 bd e8 db 62 bc 7e cf 9b bd 38 21 4d bd
       -0.07902148 -0.013846375 -0.07607935 -0.050080508
000060 df 74 af bc 49 33 76 3d 09 ba e5 3c 0d 38 29 bc
       -0.021418033 0.060107503 0.02804281 -0.010328305
000070 fe 69 85 3d 46 1d a6 bc 27 f8 e6 3d f9 42 d2 3d
       0.06514357 -0.02027763 0.112778 0.1026668
000080 94 d2 8e 3d 90 85 aa 3d c7 81 c3 3d 64 69 af 3d
       0.06973758 0.08326256 0.095462374 0.085650235
000090 12 35 3d bb c1 c3 39 3d c9 e2 ef 3c 56 67 4c 3d
       -0.0028870744 0.0453527 0.029282944 0.049903236
0000a0 e7 52 53 3d b2 96 d9 bc 32 ef c0 bc 94 29 61 ba
       0.051592734 -0.026561115 -0.023551557 -0.00085892645
0000b0 6e 6e 65 3c a6 3b a7 bc 76 9e 69 3c 3f a6 a8 bc
       0.014003379 -0.020414185 0.014258971 -0.020587085
0000c0 58 16 8d bd 90 ee 7a bd c3 13 a7 3c c6 02 9c bc
       -0.06889027 -0.061262667 0.020395165 -0.019044291
0000d0 64 80 a7 3d d1 da b8 3d a3 b6 96 3d 84 18 84 3d
       0.081787854 0.09026111 0.07359054 0.064499885
0000e0 c2 6c 5d 3d 47 7f 01 3d fd 7c a3 bb cd 00 01 bc
       0.054058798 0.03161552 -0.004989265 -0.007873726
0000f0 12 e7 39 bd d3 7e 9e bc e5 8a 43 bd 07 f7 e8 bc
       -0.04538638 -0.019347584 -0.047739882 -0.028438104
000100 ca ce 25 bd 09 cf 3a bd a0 23 93 bb ae 4b a6 bd
       -0.040480413 -0.0456076 -0.004490331 -0.081199035
000110 7e 24 95 bc 8e 8c 15 3c 5a 58 89 bc 81 c7 0d bc
       -0.018205877 0.009127749 -0.016765762 -0.0086535225
000120 de 23 10 bd 78 9f 69 3c 39 0f 07 bd b2 a6 5e bc
       -0.035190456 0.014259212 -0.0329735 -0.013589548
000130 f1 b4 83 bc 91 3e 33 bc 5b 76 2f bd b5 c8 4f bd
       -0.01607749 -0.01094021 -0.042837482 -0.05072852
000140 4c 08 2d 3d 43 c9 5b 3d 77 1b 12 3d ed 0b 5c 3d
       0.04224424 0.053658735 0.035670724 0.05372231
000150 75 cc b3 3d d3 b7 be bc 4e b3 bc b9 3b 18 28 3d
       0.087792315 -0.023281014 -0.00035991747 0.041038733
000160 60 1f 26 bc 4a 35 0f 3c 1c fe df bd 17 0f 17 bd
       -0.010139316 0.008740732 -0.109371394 -0.036879625
000170 96 24 3b bd b8 48 85 3c c6 52 30 3c 33 f6 9a bd
       -0.045689188 0.016270027 0.010761922 -0.0756649
000180 ec 06 8a bd 83 63 26 bc 3a 89 9e bd eb ae 83 bd
       -0.067396015 -0.010155561 -0.07741018 -0.06429847
000190 70 f8 e6 3c 86 ad b5 3c eb 23 e4 bc 83 76 1c 3d
       0.028194636 0.022177469 -0.027849158 0.03819896
0001a0 0f d0 18 bc eb 70 23 3c 80 92 04 bd e7 e8 50 bd
       -0.009326949 0.009975652 -0.032366276 -0.051003363
0001b0 c3 ed 37 bd 97 0f 48 3c 5f 59 a2 3d d0 e0 50 3d
       -0.04490448 0.012210748 0.079272024 0.050995648
0001c0 fb 2e 13 3d 80 f6 40 3d 06 70 41 bc e1 41 86 3c
       0.035933476 0.04711008 -0.011806494 0.016388835
0001d0 1e 8c 27 3d b2 8e 56 3d 02 21 2f 3d 60 ce 0a bb
       0.04090511 0.05238218 0.042756088 -0.0021180138
0001e0 33 b4 cd 3d fb 60 0e 3d 06 e7 a8 bb 54 48 f4 3c
       0.10044136 0.034760457 -0.0051544933 0.029819645
0001f0 11 f6 18 3c 16 e6 28 bd 99 77 dd 3c ba 7f bb ba
       0.009336011 -0.041235052 0.027034568 -0.0014305033
000200 e9 73 f7 3c 7f 88 63 3c 08 66 4a 3c b5 11 fb 3c
       0.030206637 0.013887524 0.012353428 0.030648092
000210 a9 9e 61 3c 01 c2 b0 bc e2 3c 7f bd 07 30 f1 3c
       0.013770738 -0.021576883 -0.06231392 0.029441847
000220 67 ed f8 bc bd 60 71 3d b2 a1 68 bd 1f 25 a7 bd
       -0.03038664 0.058930147 -0.05679483 -0.08161377
000230 8f fb 7a bd cb 8d 0f bd f1 5b 00 bd 20 e0 a0 bc
       -0.06127506 -0.035047334 -0.031337682 -0.019638121
000240 ab 83 3f bd 19 09 87 bd c2 b0 8b 3c 06 c8 0d 3d
       -0.046756428 -0.06593532 0.017052058 0.034614585
000250 03 23 f1 3a e6 b0 01 bd 4d fc 66 bd b5 ea 65 bd
       0.0018397275 -0.031662844 -0.056392957 -0.056132037
000260 85 73 3e bd b3 88 92 3a 85 43 1f bd 1f 16 12 3d
       -0.046496887 0.0011179656 -0.03888275 0.035665628
000270 9d 38 4e 3c d8 8d 23 bd 60 3c 5e bd b3 dc 2f bd
       0.01258674 -0.039930195 -0.054256797 -0.042935085
000280 51 99 0a bc f2 82 97 bd f6 97 1a bd fa f2 49 3a
       -0.008459405 -0.07398023 -0.037742577 0.0007703748
000290 9f ad 63 bd c3 4c 0c bd f4 e9 af bc 6f dc 31 3d
       -0.0555855 -0.034252893 -0.021473862 0.043423112
0002a0 d2 53 af 3c 1b d9 51 3d 7c 55 09 bd 30 64 0d bc
       0.021402273 0.05123244 -0.03352879 -0.008629844
0002b0 ec f7 30 3d 93 32 9a 3d 18 e9 c2 3d 8c 12 44 bb
       0.043205187 0.075291775 0.09517115 -0.0029918281
0002c0 96 0c 09 3d 98 77 80 3c 1d 3b 13 3a 6d 06 76 3b
       0.03345927 0.015682027 0.00056164135 0.003754045
0002d0 fd 0f 50 3d 22 81 0a bd b5 45 1a bd 87 97 08 bd
       0.050796498 -0.033814557 -0.037664134 -0.033347633
0002e0 13 b6 9c 3a 63 72 26 bd 5b 0c f8 bb c4 19 f6 bb
       0.0011956118 -0.04063643 -0.0075698323 -0.0075103957
0002f0 32 61 6d 3c 50 f6 87 bd 7f 18 db bc 4c 73 a7 3c
       0.014488505 -0.06638777 -0.02674508 0.02044072
000300 e5 63 54 bc bd f1 53 3b 36 c0 a4 bd 48 68 15 bd
       -0.01296327 0.0032340132 -0.08044474 -0.036476403
000310 38 fc d4 bc d1 51 c3 bc a6 56 62 3c f1 b1 4d bd
       -0.025999174 -0.023842724 0.013814604 -0.050218526
000320 7f 62 b0 bd b1 41 bf bd 96 73 14 ba c9 0b 4c 3c
       -0.08612537 -0.093387015 -0.00056629756 0.012453982
000330 a0 eb 53 3b 49 7a e4 bd a8 88 2d bb 99 a2 cf 3c
       0.0032336488 -0.111561365 -0.0026479159 0.025346087
000340 e5 bf ee 3b 3d 83 8e bd 31 a0 81 bd 63 6b 92 bd
       0.007286059 -0.069586255 -0.06329382 -0.07149389
000350 b4 dc b8 bd 5c 0d b1 bc 72 02 0a bd 87 2a c3 bd
       -0.09026471 -0.021612816 -0.03369374 -0.09529596
000360 d4 ad 37 bd d5 da b7 bd cd 17 8b bd 08 e9 90 bd
       -0.04484351 -0.08977286 -0.06791649 -0.07075697
000370 5b 59 2f bd 90 44 a3 bd 71 e7 6e bd 1b 0a 54 bd
       -0.042809825 -0.07972062 -0.05832619 -0.05176745
000380 77 ad 6b bd c7 9e 8d 3d 9a 1d 67 bc c1 d8 17 bc
       -0.057538476 0.0691505 -0.014106179 -0.009267987
000390 7b 2b e1 bd 07 6b 48 bd 0c ea 97 bc 11 22 e6 bc
       -0.10994621 -0.048930194 -0.01854422 -0.028092416
0003a0 be 9e d4 bd f5 e2 62 bd 63 1a b2 bc 68 fe 83 3d
       -0.1038184 -0.055392224 -0.021741098 0.064450085
0003b0 7b 5e b7 3c 6b 92 19 3d d0 6a 3c 3d 97 06 b9 3d
       0.022383919 0.03749315 0.0460003 0.0903446
0003c0 22 96 8f bc d7 6e 0d bd f4 00 ad 3d 76 90 74 3d
       -0.017527644 -0.034529533 0.084474474 0.05970808
0003d0 c5 4f 93 3d 51 05 f1 3c f1 c1 1f bd e9 bd ee bd
       0.07192949 0.02942148 -0.039003316 -0.11657316
0003e0 ac c2 56 bd 06 21 84 3c eb 49 d6 3c f3 b2 36 3d
       -0.052431747 0.016129028 0.026158294 0.044604253
0003f0 5a 1f 04 3d 62 e2 b2 3d ba 4d 49 3c af b0 01 bd
       0.03225646 0.08734585 0.012286598 -0.03166264

fc1.bias f4 [120]
000000 74 da 9a bc f2 8c 89 3c c0 1d 81 bd 32 f5 0c 3d
       -0.018902995 0.01679084 -0.063045025 0.034413524
000010 0f 3d b4 bd 44 06 c1 bb 81 eb 1e 3e 8b 06 d8 3d
       -0.088007085 -0.0058906395 0.15519525 0.10548123
000020 9f bd d7 bc 97 c0 d8 3c 18 79 38 bd a9 7a e7 3d
       -0.026335536 0.026459021 -0.04503736 0.113026924
000030 82 20 b0 3d 2c ce 9b bd 1f d3 d6 3d 93 54 62 3c
       0.085999504 -0.076076835 0.10489487 0.013814109
000040 ba 35 1b bd c7 57 86 bd 36 e9 3a 3c 34 ff 1d 3d
       -0.037893035 -0.06559711 0.011408141 0.03857346
000050 15 af bf 3d cc 26 d9 bb 7b ab 3b bd 76 03 c8 3b
       0.09359566 -0.0066269394 -0.045817833 0.006103928
000060 ea bf 0a 3c b4 0c 25 bd 57 e9 86 bc 5a 56 c3 3d
       0.008468607 -0.040295318 -0.016468687 0.09537955
000070 16 59 26 bd 94 da 4b 3e dd 22 8d 3d 7a 25 98 3d
       -0.040612303 0.199076 0.06891415 0.07429023
000080 47 a6 04 3e 90 10 12 3e b7 ff 47 3d 29 3a 63 3d
       0.12954055 0.1426413 0.048827853 0.055475388
000090 51 80 d4 bb 68 91 e2 bd 41 87 6a 3c 13 1b 0f 3c
       -0.006485023 -0.1106289 0.014314474 0.008734482
0000a0 6f d0 b3 3d 3b 55 e8 3b 34 b7 2e 3d 47 01 10 3e
       0.0877999 0.0070902384 0.042655185 0.14062987
0000b0 02 c0 36 b9 a9 ab 02 3e cc 7e 73 3d e8 22 0f 3e
       -0.00017428401 0.12760796 0.059447095 0.1397816
0000c0 e6 28 79 3c 77 ad 2a 3e 4e ee bc bc ce 41 30 3e
       0.015207505 0.16667734 -0.023062851 0.17212602
0000d0 b2 1e 33 3d e5 e8 6f bd 64 70 b1 bc 9f ae a1 ba
       0.043730445 -0.058571715 -0.021660037 -0.0012335366
0000e0 71 e3 c3 3d 75 c1 6f 3b 45 68 45 3c cc b1 52 3d
       0.095648654 0.0036583815 0.012048786 0.05143909
0000f0 eb 1d de 3c f8 cd 92 3c bc 49 02 bb f1 13 ef 3d
       0.027113875 0.01792048 -0.0019880375 0.116737254
000100 46 bc 70 bb cf e7 89 3a eb 99 8b 3b b6 09 78 bd
       -0.0036733313 0.0010521355 0.004260292 -0.060556136
000110 ed f4 1f 3d bb 7f 3e 3c b0 9b 95 3d 9e 52 4a bd
       0.03905194 0.011627133 0.07305086 -0.049395196
000120 2f bb e6 bc 9f dd d8 3d 24 0a 2f bd 1d ca 4b bd
       -0.028165428 0.10589146 -0.04273428 -0.049753297
000130 81 9d 67 3c 43 a7 8e bc 2d 3a 56 bc 5d 5d 21 be
       0.014136673 -0.017413741 -0.013075394 -0.15758272
000140 8c b3 d5 3d 18 82 e5 3c fd 2b 63 3d 39 3a ce ba
       0.104346365 0.028016135 0.055461872 -0.0015733904
000150 ff a6 81 3b 8c f9 1e bd a6 87 41 be 7f 24 23 3c
       0.003956675 -0.038812205 -0.18899402 0.009957432
000160 4a c6 ab 3d 6c 91 44 3d 36 fb 15 3d b5 1a 0c bc
       0.0838743 0.047990248 0.036616527 -0.008551289
000170 f8 49 03 be d4 89 22 3e 58 45 59 3d ff da b6 38
       -0.12821186 0.1587289 0.053044647 8.7192275e-05
000180 c3 d4 5a bc cb f7 94 3c 2d f1 e2 bb fc 3d d9 bc
       -0.01335639 0.018184563 -0.006925723 -0.026518814
000190 ac 1a 1c bd 66 33 13 3d 6c 15 fb bc 9e 87 f3 bc
       -0.038111374 0.03593769 -0.030649863 -0.029727753
0001a0 38 70 a9 3d 82 74 fe 3b 1b 22 0c bb df 75 de bd
       0.08273357 0.0077653537 -0.0021382633 -0.10862326
0001b0 dd d4 9a bd 4c 8c 3f 3d 20 a3 e8 3d 05 c9 26 3d
       -0.07560132 0.046764657 0.113592386 0.04071905
0001c0 83 72 e4 3d 33 18 78 3d 42 91 c6 bb 15 82 9b bd
       0.11154654 0.060569953 -0.0060597965 -0.075931706
0001d0 aa be ce bc 2c 32 8b bc d3 3a 13 3d ee 9a 74 3d
       -0.0252374 -0.016991697 0.03594477 0.059718065

fc2.weight f4 [84, 120]
000000 ac 62 9b bd 9c 64 dc 3c 13 30 cb bc 46 3f a4 3d
       -0.075871795 0.026903443 -0.024803197 0.08019881
000010 e3 42 7d bc 07 16 16 3d e1 89 46 bd bd 84 63 3d
       -0.015457842 0.0366421 -0.048471335 0.05554651
000020 d2 fd 45 bd c6 8d a9 3d 81 fd ae bb 1c d8 31 bc
       -0.048337765 0.08278994 -0.0053402786 -0.010854747
000030 e4 bf 35 bd 9c 71 d4 bc ab 9d 10 bd 09 0e 1d 3d
       -0.044372454 -0.02593308 -0.035306614 0.038343463
000040 a6 53 ac bb d9 3e cc 3c 1a eb 9f 3d 53 0e e0 3d
       -0.005258995 0.024932312 0.07808514 0.10940232
000050 0e 1b 27 3d b0 fb 17 3c 9e 7b da 3d 2d 55 58 3c
       0.040797286 0.009276316 0.10668109 0.013203901
000060 e7 6d 16 3b dc cd 8a 3d cb dc 37 bc 30 e0 8f 3d
       0.002295369 0.06777546 -0.011222075 0.07025182
000070 63 d7 50 bd d8 95 1f bd 11 f5 67 3d e6 1e 4d bd
       -0.05098666 -0.03896126 0.056630198 -0.050078295
000080 3e 25 47 3c fb 41 29 bc 02 d8 4e bd 55 49 31 3d
       0.012154875 -0.010330672 -0.05049897 0.043282825
000090 f6 1f be bd 40 80 4c 3d 69 c9 38 bd e7 bb 30 bd
       -0.0928344 0.049926996 -0.045113955 -0.043147948
0000a0 28 54 cc bd eb c5 6b 3d 12 cd 9d 3d ad 28 8d bd
       -0.09976989 0.057561796 0.0770513 -0.06892524
0000b0 9b 19 80 bd 2e 88 26 3d 68 1b ca 3d bb e3 97 bc
       -0.06254884 0.040657215 0.098685086 -0.018541208
0000c0 e0 38 a9 bd 51 2e dc bc 8c 4c 69 bc d4 54 cb bd
       -0.08262801 -0.026877554 -0.014239442 -0.09928289
0000d0 2e f6 65 3d c6 8e 75 bd 0e e4 5a 3d 4d 4b a5 bd
       0.05614298 -0.059950612 0.053440146 -0.08071003
0000e0 eb 2d 5a 3c 4d 4a 76 3d 1a ef b2 bd 88 92 80 3d
       0.013316612 0.060129452 -0.08737011 0.062779486
0000f0 9b 86 aa bd a3 43 80 3d e4 33 7e 3d 8b 1c 29 3b
       -0.08326455 0.06262901 0.062061206 0.0025804366
000100 65 27 13 bc a5 cf 4d 3d e0 8d 67 bd 0f 9f ad bd
       -0.00898156 0.050246853 -0.056531787 -0.08477604
000110 eb f6 44 3d 31 92 a6 3d b3 59 b7 3d 03 14 d9 bc
       0.04808704 0.081333525 0.08952656 -0.0264988
000120 7e 8d 90 bd a8 a8 be bd b3 aa 86 bd 00 f2 8e bd
       -0.070582375 -0.093095124 -0.06575527 -0.069797516
000130 68 36 7a bd 53 05 22 3d 10 0d 9d bd 83 88 3c 3d
       -0.061087042 0.03955586 -0.07668507 0.046028625
000140 4c a4 42 bd 5d a1 04 bc 06 71 b6 bd 8a f6 46 bc
       -0.047519967 -0.008095113 -0.08908276 -0.01214374
000150 60 6e 59 bd 57 ba 31 3d 22 97 96 bd 88 21 f1 3c
       -0.053083777 0.0433906 -0.07353045 0.029434934
000160 ea b8 6f bd 31 62 00 3d 55 e1 5c bd b9 aa 8d bd
       -0.058525957 0.031343643 -0.05392583 -0.069173284
000170 61 a9 5a 3d fa a8 66 bc 6e 95 e4 3d c8 bd 4e bd
       0.05338419 -0.014078373 0.11161314 -0.05047396
000180 45 c8 59 3d 92 0a ab bc a0 ae 5f bc 58 d8 76 bd
       0.053169508 -0.020879064 -0.013652474 -0.060264915
000190 25 3d 23 3d b1 7a 85 bd be c0 86 bd 38 c3 c8 3d
       0.039853234 -0.06517542 -0.065797314 0.0980286
0001a0 2b db 9b bd a7 1b 6c 3d 52 6f 6f bd f3 ed 98 bb
       -0.07610162 0.05764356 -0.058455773 -0.0046670376
0001b0 a9 06 4e bd 41 dc ed 3a 36 74 a0 3d 10 77 ba 3d
       -0.05029932 0.0018147306 0.078346655 0.091047406
0001c0 b2 7a bc bd c9 46 ef 3b eb ec 01 bd d8 8d 4b bd
       -0.0920309 0.0073021394 -0.031720083 -0.04969582
0001d0 17 a9 b1 bd 1f 93 68 3d d3 60 8f 3d 3f c6 a1 bd
       -0.086748295 0.05678093 0.0700089 -0.078991406
0001e0 43 2b e4 3c bd 53 8e 3d dd 99 c5 3c 7d 57 4f 3c
       0.02785266 0.069495656 0.02412122 0.012655136
0001f0 e0 df bf 3c 8e 50 84 3d a3 c0 39 bd f1 18 e1 bd
       0.023422182 0.06460677 -0.04534973 -0.10991085
000200 8f 67 92 bd ce 51 13 3d aa a7 85 bd 48 af d8 3d
       -0.071486585 0.035966687 -0.0652612 0.10580307
000210 87 8e e8 3d 2e 29 a2 3d b4 7a b8 bd 9b a9 d6 3c
       0.1135531 0.07918011 -0.09007779 0.026203921
000220 8a 75 97 3d 28 a4 f0 bd d5 46 47 3d 63 0c df 3c
       0.07395466 -0.1175006 0.048651535 0.027227586
000230 b8 cf 58 bc 81 cf 9e bd 7a a2 aa 3d 5f 2a 69 3c
       -0.013233118 -0.07754422 0.08331771 0.014231293
000240 fe 3e 1a 3d 44 e2 11 3c 17 69 b2 3d 25 1c 86 bd
       0.03765773 0.008904044 0.087114505 -0.06548337
000250 fe da fc 3d 71 39 5e 3d 3d ae c5 3c db 4d 9e 3c
       0.12346457 0.054254 0.024130935 0.019324234
000260 d9 c5 99 3d c3 dc 07 bd d0 ea 28 bd 43 99 0f 3d
       0.075084396 -0.03316952 -0.04123956 0.03505827
000270 64 95 bd 3c 50 c1 ad bd cc 3a b0 3b d7 dd 5d bd
       0.023142524 -0.08484137 0.005378103 -0.05416664
000280 44 f6 f4 3a 37 87 97 bc 6c 1e c7 3a bf 33 64 bd
       0.0018689116 -0.018497093 0.0015191562 -0.05571341
000290 01 6e 13 bd 97 23 77 bd 10 09 3c bd 5f 5b 5d bc
       -0.03599358 -0.060336675 -0.04590708 -0.013510554
0002a0 1f 39 e1 3d 4e 51 f4 3d 10 d0 4e bc 4d 00 c3 bd
       0.10997223 0.1192957 -0.012622848 -0.09521542
0002b0 99 19 d6 bc b9 8a 02 3d ef ac 97 bd 46 87 38 3d
       -0.026135253 0.031870577 -0.07406031 0.04505088
0002c0 46 7e 0e 3d ab a5 f6 bd 34 5f 4b bd 22 d9 93 3d
       0.034788392 -0.120433174 -0.04965134 0.07219149
0002d0 79 18 bf 3c a8 ac d6 bd 95 98 8b 3d 88 f5 65 ba
       0.0233271 -0.1048215 0.06816212 -0.0008772244
0002e0 63 ce c3 3c 7c 78 ae 3c 77 dd af bd 75 b9 4e 3d
       0.023902124 0.021297686 -0.08587163 0.050469834
0002f0 24 ce c9 bc af 31 93 bd 33 53 51 bc 80 41 00 bc
       -0.024634428 -0.07187211 -0.012776184 -0.007828116
000300 20 e1 a7 bc 19 a4 00 be 8e e8 78 bd 37 71 ab 3c
       -0.02049309 -0.12562598 -0.060768656 0.020928008
000310 62 a0 4f 3d 57 f8 d6 bc 1c 75 d0 3d 01 38 d0 bd
       0.050690062 -0.026241465 0.10178587 -0.10166932
000320 3b 48 f1 3d bd d8 7a 3d 00 64 32 3d e9 7d fb bc
       0.11781355 0.061241854 0.0435524 -0.030699687
000330 3c 61 4e bd e3 11 2d bb 6d c9 9e bd 07 e4 a1 3d
       -0.0503857 -0.0026408366 -0.07753263 0.07904821
000340 6c 63 b4 bd 3a 57 ce 3d 10 69 19 bd 19 e3 b3 3d
       -0.08808026 0.10075231 -0.03745371 0.0878355
000350 f3 07 81 3c 73 3d 06 3e d0 00 8f bd 91 c9 94 3d
       0.01575086 0.13109379 -0.06982577 0.07265008
000360 60 c6 97 3d 47 ce 7d 3a 14 6f d3 3c 11 1f 7c 3d
       0.07410884 0.0009681922 0.025809802 0.061553065
000370 fd 6c 98 3d 4c b2 b5 bd f6 54 10 3d bf 23 ee 3b
       0.07442663 -0.08871898 0.035237275 0.007267445
000380 f4 76 ef bb d1 e0 84 bd f8 7e 79 3d c1 05 19 bc
       -0.0073078815 -0.06488193 0.060912102 -0.009339751
000390 00 a3 19 3d e7 6d dd 3c a4 e0 d6 3c ca e2 63 bd
       0.037508965 0.027029945 0.026230164 -0.055636205
0003a0 b7 b2 43 bd c7 6f 03 3e dd 62 37 bd 5b a9 e2 bd
       -0.047777858 0.12835608 -0.044772018 -0.11067458
0003b0 87 87 a3 3d 4e f6 3e bd 33 6f 62 3d 0d 32 c7 bb
       0.07984834 -0.046621613 0.05528183 -0.0060789646
0003c0 c2 4b 02 bd c4 e0 68 bd 42 3a 4a 3d 3e be 4a ba
       -0.03181053 -0.05685498 0.049371965 -0.0007734037
0003d0 f0 ca 22 be 19 a2 96 bd 99 77 96 bc e7 db bb bd
       -0.15897727 -0.073551364 -0.018367575 -0.091728024
0003e0 96 72 59 3d 63 56 04 3d 2d 04 31 3d a7 58 d7 39
       0.053087793 0.032308947 0.043216873 0.00041074047
0003f0 23 f0 00 3c de 52 fd 3c 15 a5 f9 bc 5d cb 55 3d
       0.007869753 0.030923303 -0.030474225 0.052195895

fc2.bias f4 [84]
000000 88 a8 9d bb 36 48 f3 3d e8 0f b7 3d bb 3c df bd
       -0.0048113503 0.118790075 0.08938581 -0.10900255
000010 66 07 60 bd 2d 34 10 3e 80 00 37 3b bb c3 42 3e
       -0.054694556 0.14082403 0.0027923882 0.19019978
000020 05 f3 19 3d fa c4 86 bc 26 ce 45 3c 8c 5c ba 3d
       0.037585277 -0.016451348 0.012073075 0.09099683
000030 9c 33 83 bd b3 76 89 3e 05 08 47 3e 89 03 36 3e
       -0.06406328 0.26848373 0.19436653 0.17774786
000040 b3 cd 21 3e e3 ee d1 3d 9b be 29 be 14 5a 21 3e
       0.15801124 0.10250642 -0.16576616 0.15757018
000050 a0 8a c0 3e 7a 66 ab bb 03 0c 04 bd 29 17 c3 3d
       0.37605762 -0.005230722 -0.032238018 0.09525902
000060 63 9f 88 bd 92 f8 3c 3d c2 e0 85 bd 1d 17 30 3e
       -0.066710256 0.046135493 -0.0653701 0.17196317
000070 3d 92 38 3e 77 d4 15 3d 35 e3 81 3e 8a 91 71 bc
       0.18024535 0.036579575 0.25368658 -0.014744172
000080 ef 63 68 bd 19 7d c0 bd 16 3a 38 3e 36 31 fe bd
       -0.05673593 -0.093988605 0.17990908 -0.1241173
000090 61 ba d1 bd f3 20 53 bd 93 b0 aa bd d3 20 fa 3d
       -0.10240627 -0.051545095 -0.0833446 0.12213292
0000a0 ab 7d 05 3e 86 11 17 3d 2b 17 38 bc c1 fc d4 3c
       0.1303622 0.036881946 -0.011235992 0.025999429
0000b0 e7 94 cb 3d ad 6e 74 3e cb 31 14 3d a1 71 bc 3e
       0.0994051 0.23870344 0.0361803 0.36805442
0000c0 5f 3c 86 bb b5 7f e1 ba 84 ab 3f 3e ee 40 3f bd
       -0.0040965523 -0.0017204197 0.18717772 -0.04669278
0000d0 4d 02 92 bd 8a ce fa bd 4d 61 55 3c a8 2f ab 3e
       -0.07129345 -0.122464254 0.013023687 0.33434796
0000e0 36 8b d8 bd 79 27 af bd 16 47 c6 3e d6 02 c7 ba
       -0.105734274 -0.08552451 0.3872611 -0.001518334
0000f0 f4 61 fc bd 7e 3d 86 bd 0b 39 4a 3e 1d f4 1a bd
       -0.123233706 -0.065546975 0.19748323 -0.03783046
000100 38 15 27 3b c0 d0 38 bd 75 0b 67 3e 5a c4 a7 bd
       0.0025494825 -0.045120955 0.22562964 -0.08191748
000110 ad 4c 5e bc 00 8f 02 bd be 0f c9 3c 2b 0f 4a bd
       -0.013568086 -0.031874657 0.02454364 -0.04933087
000120 a0 e5 0f 3e fd 16 b4 bb 54 ae 53 bd eb 03 89 bd
       0.14052439 -0.0054959045 -0.051679924 -0.066902004
000130 86 e3 3d 3e d4 ce d8 3d b4 18 ee 3d 17 b3 8c 3d
       0.18543825 0.10586324 0.116258055 0.06870096
000140 e5 0d 89 3e 12 25 e2 bd c9 2d 75 3d 94 37 9c 3d
       0.26768413 -0.11042227 0.059858117 0.07627788

fc3.weight f4 [10, 84]
000000 41 cf cf 3c 16 e3 1b be cf bc 25 be 78 a1 01 be
       0.025367381 -0.15223345 -0.16185306 -0.12659252
000010 b6 ca 86 bd f3 3a a3 bd 9e 14 77 bd 33 c6 34 be
       -0.06581633 -0.07970228 -0.060322396 -0.17653732
000020 b9 0c 82 3d 2c 86 ea 3d c3 41 af bd 5b 9d 8e 3c
       0.06350083 0.114513725 -0.08557465 0.017409017
000030 74 3c c8 3b 35 a2 96 be b8 4f 25 3e ee 66 49 be
       0.006110722 -0.2942063 0.16143692 -0.19668171
000040 a7 34 85 3e 33 b8 55 3e c6 89 70 3d a6 dd f3 bd
       0.26016733 0.20871048 0.05872514 -0.119075105
000050 32 5a b0 3d a2 65 46 3b b9 b4 8a 3e 37 cf a1 bd
       0.086109534 0.003027298 0.27091005 -0.07900851
000060 c7 4f a9 3d 7a cf 9e 3d a6 cb fa bc b6 8b 39 3e
       0.082671694 0.07754417 -0.030614685 0.18119702
000070 86 e5 66 bd c6 bb ac 3d 00 b3 06 3e 5a 74 0d 3e
       -0.056371234 0.084342524 0.1315422 0.13813916
000080 9d 32 2f bb bb 87 90 3d 66 a4 25 bc f7 76 5a 3d
       -0.0026733049 0.070571385 -0.010109996 0.05333611
000090 ea 9c 0c 3d 9e e2 8c 3e 37 86 19 bd 55 c8 3f 3e
       0.034329332 0.27516645 -0.037481513 0.18728764
0000a0 d5 26 c1 3d 42 46 2a 3d 0c 91 cd 3d ac f3 4f 3d
       0.09431235 0.04157091 0.10037431 0.050769493
0000b0 b2 1d 89 3d 2b 00 58 3e 7f 78 80 3d 0e f2 ec bc
       0.06695117 0.21093814 0.06272983 -0.028924014
0000c0 95 87 e1 bd 7d 9c 0e be 63 9c a8 be 28 6d 16 3c
       -0.11012188 -0.13926883 -0.32931814 0.009181298
0000d0 58 d1 e3 bd 92 04 4e 3e c8 20 ea bd 99 a1 af be
       -0.111239135 0.20118931 -0.11432034 -0.34302977
0000e0 86 b7 83 3d ab 69 d5 bd e1 2e 61 be 69 d7 66 3e
       0.06431489 -0.10420545 -0.21990539 0.2254311
0000f0 ab a2 0f 3e 35 5d 1e bc 70 7d cb 3d 55 bf 70 bd
       0.14026897 -0.009665777 0.09936035 -0.05877622
000100 0f e2 c8 bd 82 25 81 3d 33 95 21 3e b9 08 90 3c
       -0.09808742 0.06305982 0.15779571 0.017582284
000110 05 d1 b2 bc a3 97 3d bb 11 85 22 3d 1c 32 a6 bd
       -0.021828184 -0.0028929494 0.039677683 -0.08115026
000120 6a 49 18 3d 04 8d 8c bb 63 0a 2a 3d e7 cb 48 bd
       0.037179388 -0.0042892713 0.04151381 -0.04902258
000130 76 39 3c 3e 67 44 65 bd f8 d4 6d be 1c 59 de 3c
       0.18381295 -0.055973437 -0.23225772 0.0271421
000140 d2 0b 9b bc 01 37 ba 3d 01 64 fe 3a 66 ca d7 3d
       -0.018926535 0.090925224 0.0019408466 0.10536651
000150 c7 fd 8f 3d 85 dd 09 be 12 62 db bd b6 99 a7 3e
       0.07030826 -0.13463409 -0.10712065 0.3273446
000160 43 5b 49 3e c3 cd 37 3d a0 8a 80 3b 31 83 a4 be
       0.1966372 0.044873964 0.0039227754 -0.3213134
000170 a8 4b 6c bc eb ae e6 3d 11 88 df bd 9d 73 14 3d
       -0.014422335 0.11263832 -0.109146245 0.03624307
000180 94 2e 32 3c 59 bf 2c be 56 7a b1 bc ec 84 69 be
       0.010875363 -0.16869868 -0.02166478 -0.22804612
000190 49 9a 6b be 8f a4 a9 3d 65 8b 8d bd e4 7a d5 bd
       -0.23008074 0.0828334 -0.06911353 -0.1042383
0001a0 15 4d 4b be 5b 89 07 be 54 73 00 be 6c 12 a4 be
       -0.19853623 -0.1323599 -0.12543994 -0.32045305
0001b0 fe 5a cd bd 06 5c aa bd c6 c3 86 3d 20 13 b4 3e
       -0.10027121 -0.08318333 0.065803096 0.3517084
0001c0 39 7c 85 be 39 30 5e bc 42 45 aa be 27 03 4f bc
       -0.26071337 -0.013561302 -0.33255965 -0.012635029
0001d0 db c2 cb 3e 1e a6 17 bd 16 53 32 3e 0d 8a aa 3d
       0.397971 -0.037023656 0.17414507 0.08327112
0001e0 1b 10 a9 bd 52 5c 3c 3e 34 87 97 3d 65 9f 65 bd
       -0.08255025 0.18394592 0.07398835 -0.056060214
0001f0 b4 9e 7b 3e 4e 61 b7 3d 61 ab 8f 3e 3e 43 61 3e
       0.24572259 0.08954106 0.2806044 0.21998307
000200 36 7a 9c be ee 6a e6 bc 91 d0 1d 3d 14 d3 0a bc
       -0.3056199 -0.02812716 0.038528983 -0.0084731765
000210 5e 0e a7 bc 4a 4f 86 3d e8 66 d5 bd c4 eb 94 3d
       -0.020392593 0.06558092 -0.104200184 0.07271531
000220 ae 4c 4e bb 0c 69 8d 3e b8 50 48 3d b9 96 fc 3c
       -0.003147881 0.27619207 0.048905104 0.030833589
000230 47 73 1b 3e 62 e7 c1 3c e0 8e 0f bd 46 08 0d bd
       0.15180694 0.023669902 -0.035048366 -0.03443172
000240 de de b9 bd 75 6f ef 3d f6 4e 27 be a6 d8 8f bc
       -0.09075712 0.116911806 -0.16338715 -0.01755936
000250 99 05 1b 3d a1 12 27 3e 59 f1 db 3d 50 38 82 bd
       0.037847135 0.163157 0.10739393 -0.06358397
000260 c9 ef 43 3d 22 06 69 bd c9 31 44 bd 84 3a 03 bd
       0.0478361 -0.056890614 -0.04789904 -0.032038227
000270 0c 81 ac bb dd 6a 61 bd f2 95 76 3c ad d2 81 bd
       -0.005264407 -0.055033553 0.015050398 -0.06339011
000280 a2 a9 65 bd ab 6f 0e 3d ac a3 29 3e a3 43 b7 bb
       -0.056069978 0.034774464 0.16566342 -0.0055927797
000290 f1 4c b9 be 58 37 86 bd ec 7e 43 3c 2e a7 14 bc
       -0.36191514 -0.06553525 0.011932116 -0.009073062
0002a0 26 9f 12 3d 94 8e a4 bc d1 b9 66 3d ec 73 7e 3c
       0.035796307 -0.020087518 0.056329552 0.015530568
0002b0 85 c7 55 be b0 43 91 3d 24 c8 32 be 23 0f 13 3e
       -0.20876892 0.070929885 -0.1745916 0.14361243
0002c0 e5 47 86 3a 6d 03 97 bd 9e 05 c4 3d 03 0f d8 bd
       0.0010244815 -0.073737 0.09571384 -0.10549738
0002d0 31 4d f9 3d a4 83 69 bd 4c a7 98 bc 2c e6 55 3d
       0.12172926 -0.057010308 -0.01863446 0.052221462
0002e0 1d 5f 80 3e ad 05 64 3e 99 7d dd 3d 69 a1 c3 3d
       0.25072566 0.2226779 0.108149715 0.09552271
0002f0 86 c9 84 3e 23 3e 39 3c 77 b4 47 be 61 33 b9 3b
       0.25935 0.011306318 -0.19502436 0.005651877
000300 76 a1 5b bd 7d a9 15 3d 59 e1 c4 bd 35 b7 60 be
       -0.053620778 0.03653859 -0.09613294 -0.21944888
000310 58 2a 3d 3d c1 3e 30 3d 6f 53 5a 3e 2c 31 c8 bc
       0.04618296 0.043028597 0.2132089 -0.02443751
000320 cf 54 fa bd 36 d9 3d 3b de e3 08 be db 71 ae bd
       -0.12223207 0.002896858 -0.13368174 -0.0851781
000330 9f f7 47 3d 0d 8c 7a bd 5e 6b 3b bc 93 86 5b 3e
       0.048820134 -0.06116872 -0.011439173 0.21438055
000340 3e b8 2a 3d 92 d3 80 3d 89 db 70 bc 54 a0 0e be
       0.041679613 0.06290354 -0.014700779 -0.13928348
000350 8c dc 06 3d 4f 9d 0a 3e 64 2a 00 be e8 58 c4 3d
       0.032925174 0.13536571 -0.1251617 0.0958727
000360 d1 82 f1 bd 49 15 82 3e 05 f4 c7 3d 3c 5e 54 3d
       -0.117925294 0.25406864 0.0976334 0.05184768
000370 62 3c 2f bd bc 0a e7 3c 0a a2 c7 3c 77 a9 e4 3d
       -0.042782195 0.02820336 0.024369258 0.11165135
000380 3e ea 9e bd ea 40 c0 3d 70 d4 19 bd f8 14 87 3d
       -0.07759522 0.093873814 -0.03755611 0.06595796
000390 19 00 91 bd 01 2f 62 3d 70 ee e0 bd 54 76 52 3d
       -0.07080097 0.055220608 -0.10982978 0.051382378
0003a0 29 50 5e bc f4 87 7b 3e 55 aa 6b be 51 ef e7 bc
       -0.013568916 0.24563581 -0.23014195 -0.028312357
0003b0 aa 00 1d 3d 2d 7b ed 3c 08 fd 00 3d da 65 46 bd
       0.03833071 0.028989399 0.03149131 -0.048436977
0003c0 52 ca 87 3d be db 5c 3d d6 82 92 bd 51 ee 96 3d
       0.066303864 0.0539205 -0.07153861 0.07369674
0003d0 e0 f3 db 3b ca 7e 25 3e 3c 41 10 be 30 d2 99 bd
       0.006712422 0.16161647 -0.14087385 -0.07510793
0003e0 12 a6 c2 3e 74 47 48 3e 04 3a 83 3d b4 ad d5 3c
       0.38017327 0.19558507 0.0640755 0.026083805
0003f0 af 7b 9b 3d f7 59 bc 3d f6 df 43 bd fa f4 0c be
       0.0759195 0.09196847 -0.047821008 -0.13765326

fc3.bias f4 [10]
000000 aa 6d c5 be 39 93 09 bf dd 30 db 3c 35 6a 99 3e
       -0.3856023 -0.5374027 0.026756698 0.29963842
000010 93 fc 11 3f 4a 20 3c be 19 40 60 3c 21 4e 84 be
       0.5702602 -0.18371692 0.013687157 -0.25840858
000020 7e 34 bb 3e 70 83 8b be
       0.36563486 -0.27248716
