PyTorch/tutorial/cifar_net.pth (torch, 251277 bytes, 10 tensors)

conv1.weight f4 [6, 3, 5, 5]
0.1440558 -0.0241305 0.049915127 0.11035017 0.08800569 0.1041468 -0.1839008 -0.09411799
0.19855781 0.065164216 -0.13846211 -0.26527795 0.0044075972 0.32998443 0.22259943 -0.17815268
-0.26479408 0.17454472 0.18662639 0.12624137 -0.03141857 -0.040877983 0.09599732 0.16753472
0.0021465882 -0.13199481 -0.106364004 -0.09774848 -0.112704866 0.043170147 -0.099723816 -0.30577672
-0.10454053 0.20742182 0.1004231 -0.24502921 -0.28476286 -0.08266914 0.2824553 0.08034104
-0.17904912 -0.32690135 0.017609607 0.19322439 -0.0007983683 -0.20828661 -0.18358494 0.12049732
0.08449303 0.0033863347 0.019933555 -0.11530155 -0.09928237 0.094762534 0.0572041 -0.13799354
-0.1489139 -0.11758549 0.283762 0.24172552 -0.2982752 -0.32464844 -0.022743521 0.4611706
0.25678152 -0.14199485 -0.3124617 0.21005991 0.4037221 0.1542444 -0.06697396 -0.103272006
0.14821157 0.17019781 0.29010108 -0.22277342 -0.08162573 -0.08882482 0.0075229392 -0.18279605
-0.17741595 -0.124804586 -0.19162352 -0.03265214 -0.1328122 -0.18771166 -0.13284366 -0.21348202
-0.11193301 -0.2574722 -0.09391885 -0.19359408 -0.20920312 -0.07994757 -0.08615971 -0.19898368
-0.24906698 -0.22715123 -0.13251716 -0.12931505 -0.11151628 0.07716273 0.021934586 -0.12618296
-0.030742677 0.019524695 0.013036613 -0.051519267 -0.023311658 -0.0344878 -0.0009020614 0.069058225
-0.00077017676 0.029291414 -0.05892958 -0.035870116 0.053881656 0.115717255 0.07250215 0.013380275
-0.05005284 -0.014677212 -0.07117568 -0.017848246 -0.1683797 0.16980006 0.13569924 0.21582122
0.16828738 0.08761291 0.14860131 0.1558223 0.32065362 0.11446024 0.13574544 0.1998574
0.17033865 0.31828704 0.1765961 0.2947599 0.051793862 0.26932105 0.3824038 0.26511973
0.29974335 0.12708709 0.21168219 0.11391145 0.16056827 0.16332033 -0.15254116 -0.12014891
0.10073263 0.10406311 0.019177064 -0.03315345 0.10624207 0.03530424 0.07664162 -0.032057997
0.039879855 0.07289526 0.12168265 -0.024742512 0.053042676 0.13016145 0.18040657 0.06129721
0.08365144 0.1530815 0.16307795 0.10258831 0.22364503 0.13798065 0.028284168 -0.120573245
-0.01927423 0.06628322 -0.047282208 -0.053021867 -0.10149823 -0.01728725 0.07349716 0.06500666
-0.13529499 -0.1040451 0.0062574944 0.048910428 0.030356748 -0.12401874 -0.13124883 -0.06789812
-0.0147821065 -0.099563055 -0.20068401 -0.074377544 -0.08227224 -0.13003542 -0.06068672 -0.14229722
0.096862726 0.23393399 0.24728695 0.15176314 0.14273019 0.0829126 0.24288556 0.292053
0.18559363 0.10269242 0.08132836 0.074051104 0.062104914 0.11054853 -0.10025242 0.04382126
0.12511548 0.078361034 -0.0023876464 -0.13203429 0.008351192 0.06593697 -0.0017367069 -0.027947115
-0.05175019 -0.17286542 -0.18373346 -0.32046598 -0.3098724 -0.18486157 0.040721506 -0.08712007
-0.093470596 -0.110497646 -0.18418726 0.19359057 0.28804526 0.28404355 0.1432904 -0.042438168
0.21952026 0.36593658 0.31546834 0.21367848 0.21873488 0.2912672 0.30889064 0.31918937
0.25024065 0.25591776 -0.13181807 -0.2664098 -0.15631871 -0.21503776 -0.13826184 -0.26438096
00000000: 5d83 133e 54ad c5bc ce73 4c3d 45ff e13d
00000010: 543c b43d eb4a d53d 7e50 3cbe efc0 c0bd
00000020: bd52 4b3e d174 853d 03c9 0dbe 83d2 87be
00000030: 9b6d 903b b8f3 a83e 1bf1 633e a86d 36be
00000040: 1793 87be dabb 323e fd1a 3f3e 6b45 013e
00000050: c2b0 00bd ac6f 27bd 3e9a c43d 398e 2b3e
00000060: c6ad 0c3b a629 07be 5fd5 d9bd 5b30 c8bd
00000070: cfd1 e6bd 2ed3 303d 003c ccbd c48e 9cbe
00000080: 5819 d6bd 6366 543e a0aa cd3d f0e8 7abe
00000090: 70cc 91be 704e a9bd fb9d 903e d889 a43d
000000a0: a758 37be 9d5f a7be 0642 903c 9ddc 453e
000000b0: 9749 51ba 1649 55be b1fd 3bbe 4dc7 f63d
000000c0: af0a ad3d 45ed 5d3b b24b a33c 3823 ecbd
000000d0: 8e54 cbbd dc12 c23d d94e 6a3d 2e4e 0dbe
000000e0: e37c 18be a9d0 f0bd 4149 913e e586 773e
000000f0: 87b7 98be 5238 a6be 9f50 babc 8e1e ec3e
00000100: de78 833e 1967 11be fbfa 9fbe f219 573e
00000110: aab4 ce3e 3ef2 1d3e a529 89bd 4680 d3bd
00000120: c6c4 173e 5648 2e3e 2188 943e b71e 64be
00000130: 642b a7bd cae9 b5bd fd82 f63b e32e 3bbe
00000140: 87ac 35be 8c99 ffbd f538 44be 40be 05bd
00000150: ecff 07be 7c37 40be 2b08 08be 089b 5abe
00000160: 223d e5bd 65d3 83be 8758 c0bd 873d 46be
00000170: 5839 56be 8dbb a3bd 8174 b0bd 61c2 4bbe
00000180: 6a0b 7fbe 559a 68be 94b2 07be 2a6b 04be
00000190: a662 e4bd 7e07 9e3d 29b0 b33c 1b36 01be
000001a0: 11d8 fbbc 41f2 9f3c 8597 553c de05 53bd
000001b0: 17f8 bebc 1443 0dbd 5178 6cba 666e 8d3d
000001c0: b0e5 49ba 8cf4 ef3c 2560 71bd 8bec 12bd
000001d0: 03b3 5c3d 2bfd ec3d 027c 943d f138 5b3c
000001e0: 3504 4dbd b078 70bc 8ec4 91bd 7c36 92bc
000001f0: ba6b 2cbe 11e0 2d3e bef4 0a3e 3d00 5d3e
00000200: 8753 2c3e 666e b33d f12a 183e e28f 1f3e
00000210: b62c a43e 216a ea3d da00 0b3e 6ba7 4c3e
00000220: 416d 2e3e 85f6 a23e 9cd5 343e c5ea 963e
00000230: cd25 543d 73e4 893e 6eca c33e c6bd 873e
00000240: f677 993e 1e23 023e 37c3 583e 684a e93d
00000250: 026c 243e 723d 273e c033 1cbe a210 f6bd
00000260: e94c ce3d 0a1f d53d 3819 9d3c e9cb 07bd
00000270: 7195 d93d 2e9b 103d 48f6 9c3d 3f4f 03bd
00000280: 0f59 233d 1c4a 953d c134 f93d cfb0 cabc
00000290: 4743 593d 0b49 053e 80bc 383e c912 7b3d
000002a0: 7251 ab3d 66c1 1c3e e8fd 263e d219 d23d
000002b0: 3403 653e cd4a 0d3e 33b4 e73c 1bef f6bd
000002c0: fde4 9dbc 7fbf 873d fdaa 41bd 752d 59bd
000002d0: 4ede cfbd fe9d 8dbc ae85 963d 3622 853d
000002e0: c58a 0abe 9915 d5bd ab0b cd3b 4d56 483d
000002f0: b7ae f83c 8afd fdbd 1866 06be 2b0e 8bbd
00000300: a630 72bc b7e7 cbbd 1c80 4dbe 4153 98bd
00000310: 597e a8bd 0128 05be a392 78bd 5db6 11be
00000320: f75f c63d 648c 6f3e ca38 7d3e cc67 1b3e
00000330: dd27 123e 15ce a93d feb6 783e f987 953e
00000340: 420c 3e3e 6750 d23d 7c8f a63d 1ba8 973d
00000350: b961 7e3d 4567 e23d 2451 cdbd ec7d 333d
00000360: 461e 003e c07b a03d 0f7a 1cbb ff33 07be
00000370: 70d3 083c f609 873d 37a2 e3ba 59f1 e4bc
00000380: 02f8 53bd a203 31be a024 3cbe 1e14 a4be
00000390: 98a7 9ebe 5a4c 3dbe 98cb 263d 026c b2bd
000003a0: 836d bfbd 974c e2bd 969b 3cbe 9b3c 463e
000003b0: ab7a 933e 286e 913e b8ba 123e a5d3 2dbd
000003c0: ebc9 603e 0a5c bb3e 1185 a13e 88ce 5a3e
000003d0: 09fc 5f3e f920 953e ea26 9e3e ca6c a33e
000003e0: 8b1f 803e a707 833e 51fb 06be de66 88be
000003f0: 0312 20be dc32 5cbe 8394 0dbe f15c 87be

conv1.bias f4 [6]
-0.25640795 0.49393585 0.15781218 -0.06584756 -0.20867343 -0.52011716
00000000: e747 83be 29e5 fc3e 8499 213e 16db 86bd
00000010: 7dae 55be 6626 05bf

conv2.weight f4 [16, 6, 5, 5]
-0.23193164 -0.21094564 -0.21501859 -0.21108541 -0.17411032 -0.2063931 -0.26980186 -0.25040406
-0.2538059 -0.20153058 -0.14515549 -0.22288707 -0.1683818 -0.1814893 -0.19401641 -0.058144704
-0.11974782 -0.14662172 -0.14159872 -0.17317432 0.03921104 -0.014973892 -0.11112435 -0.08544485
-0.09560856 0.1800713 0.05191291 0.07448788 0.0904293 0.05831109 0.09239615 -0.002047407
-0.083051406 -0.040670134 0.03367593 0.093591996 -0.091097735 0.03590383 -0.1004525 0.0356342
0.11025618 0.025527623 0.039104167 0.10791158 0.015636696 0.12751994 0.114902355 -0.0040871883
0.073420785 0.09938755 -0.0058959173 -0.033671122 0.035623897 -0.015656278 0.081139974 -0.12918898
-0.1564331 -0.07912122 -0.0041648513 -0.0005157175 -0.1236089 -0.11812691 -0.11124646 -0.06336409
0.053564966 -0.039332386 -0.010560081 -0.07033078 0.1067876 0.037357144 0.1556211 0.052332003
0.06762981 0.14871043 0.054418784 -0.14140557 -0.05274493 -0.16364507 -0.06671152 -0.076432146
-0.13379973 -0.061087485 -0.14169055 -0.1448421 -0.06770804 0.037424818 0.05487771 -0.058484178
0.059919156 0.064189516 0.19906445 0.04840997 -0.06666774 -0.016987272 0.08539985 0.16847755
0.16411747 0.17911991 0.07607511 0.056188125 -0.00042334988 -0.17346358 -0.18923718 -0.16868426
-0.10439787 -0.0012877095 -0.047222644 -0.096226186 -0.17742038 -0.15795158 0.09212496 0.08478238
-0.08344534 -0.13838202 -0.11383039 0.109237045 0.1280378 0.056184035 0.026545258 0.03240814
-0.032331552 0.07463402 0.06734964 0.024918942 0.07832372 0.05043105 -0.011965759 0.070880175
-0.078918576 0.03632303 -0.032743134 -0.13580792 -0.104063444 -0.1251171 -0.088165976 0.015486705
-0.1490509 -0.15597019 -0.093728855 -0.0043156818 0.0054708137 -0.017719302 -0.0065541877 0.0073336232
-0.050194006 -0.01893416 0.073140815 -0.07647907 -0.05842535 0.14725247 0.07787468 -0.060253665
-0.039490815 0.20718695 0.2017238 -0.010420923 -0.08404738 0.024350695 0.15906322 0.060551643
0.030053323 -0.26262656 0.06130395 0.010880009 -0.024608474 0.030922085 -0.27829394 0.18715185
-0.037123 -0.08657732 -0.21817134 -0.2017505 0.29005262 0.028254583 -0.0803331 0.10167088
0.081081405 0.11670407 0.03051431 0.22128038 0.0076845763 -0.08898844 -0.053278502 -0.05427426
0.13541047 -0.07332041 -0.047495138 -0.073110975 0.034446187 0.075944975 -0.15760176 -0.10659693
0.00027890273 0.07994275 0.08578358 -0.12598124 -0.18074024 -0.062075995 -0.050832234 0.06926213
0.096891254 0.1084138 0.09039146 0.0746888 0.13352059 0.056048226 0.10063308 -0.045095883
0.05386887 0.03622366 -0.023248117 -0.04858575 -0.07496127 0.029931568 -0.008078777 -0.12909274
-0.055160623 -0.073388256 -0.060708493 -0.1289428 -0.100184016 -0.09420963 -0.14551 -0.22202447
-0.1151813 0.19959466 0.100414366 0.2469021 0.3177309 0.20014183 0.0558351 -0.06754118
-0.031851556 0.037255775 0.03904406 -0.07974087 -0.118971504 -0.10545771 -0.02468862 -0.05514917
-0.09438571 -0.21072929 -0.18713933 -0.021537108 -0.03169503 -0.0071364045 -0.10310176 -0.09433058
-0.08710615 -0.026254706 -0.03628267 -0.10722021 -0.09775201 -0.13327248 -0.00018324691 -0.09058775
00000000: 7d7f 6dbe 2202 58be d52d 5cbe c626 58be
00000010: fa49 32be b658 53be 7823 8abe f634 80be
00000020: d9f2 81be 085e 4ebe a4a3 14be 823c 64be
00000030: 476c 2cbe 55d8 39be 3dac 46be 2429 6ebd
00000040: 583e f5bd 0124 16be 41ff 10be 9c54 31be
00000050: c19b 203d 0e55 75bc 2a95 e3bd b6fd aebd
00000060: 6cce c3bd 9c64 383e a2a2 543d 1a8d 983d
00000070: ff32 b93d 9cd7 6e3d 313a bd3d ca2d 06bb
00000080: db16 aabd ba95 26bd c6ef 093d 29ad bf3d
00000090: 7391 babd e50f 133d 0aba cdbd 2bf5 113d
000000a0: fecd e13d 4e1f d13c b12b 203d bf00 dd3d
000000b0: 8718 803c 9694 023e ed51 eb3d d2ed 85bb
000000c0: a35d 963d b38b cb3d 8a32 c1bb bbea 09bd
000000d0: 5dea 113d 9841 80bc b72c a63d 1e4a 04be
000000e0: 0030 20be 4e0a a2bd 4e79 88bb 3731 07ba
000000f0: aa26 fdbd 85ec f1bd 2fd5 e3bd 08c5 81bd
00000100: f066 5b3d ff1a 21bd 3104 2dbc 9609 90bd
00000110: 75b3 da3d ce03 193d 235b 1f3e 155a 563d
00000120: 7f81 8a3d 8c47 183e 3be6 5e3d 9fcc 10be
00000130: 110b 58bd 9392 27be 0da0 88bd 7588 9cbd
00000140: cc02 09be df36 7abd 5417 11be 7d51 14be
00000150: 83aa 8abd c44a 193d 73c7 603d 1b8d 6fbd
00000160: ca6d 753d cb75 833d 8dd7 4b3e 8849 463d
00000170: 1989 88bd e428 8bbc 1ee6 ae3d 6185 2c3e
00000180: 690e 283e 366b 373e 44cd 9b3d 8525 663d
00000190: 0ff5 ddb9 70a0 31be 64c7 41be 91bb 2cbe
000001a0: 8dce d5bd 5cc8 a8ba 886c 41bd 3c12 c5bd
000001b0: b0ad 35be 0fbe 21be 03ac bc3d 62a2 ad3d
000001c0: 64e5 aabd 04b4 0dbe e81f e9bd acb7 df3d
000001d0: 571c 033e 3b21 663d 7175 d93c 66be 043d
000001e0: 176e 04bd b9d9 983d 9cee 893d cf22 cc3c
000001f0: 3068 a03d ca90 4e3d 080c 44bc a029 913d
00000200: 10a0 a1bd 75c7 143d aa1d 06bd 3b11 0bbe
00000210: 371f d5bd b21e 00be 5d90 b4bd f3bb 7d3c
00000220: cda0 18be a6b6 1fbe eaf4 bfbd 906a 8dbb
00000230: 8344 b33b 1228 91bc 83c4 d6bb e44e f03b
00000240: 3b98 4dbd d01b 9bbc daca 953d 0fa1 9cbd
00000250: 6b4f 6fbd 5ac9 163e c37c 9f3d 8ccc 76bd
00000260: 1fc1 21bd d128 543e af90 4e3e 85bc 2abc
00000270: 0821 acbd 1c7b c73c 78e1 223e 0005 783d
00000280: 6332 f63c fd76 86be da19 7b3d 1142 323c
00000290: b697 c9bc 5050 fd3c 8b7c 8ebe bca4 3f3e
000002a0: 490e 18bd 734f b1bd 4f68 5fbe af97 4ebe
000002b0: c781 943e 2876 e73c ae85 a4bd d338 d03d
000002c0: 020e a63d 8b02 ef3d 25f9 f93c 5397 623e
000002d0: e6ce fb3b 923f b6bd 8f3a 5abd b04e 5ebd
000002e0: 0ba9 0a3e 0329 96bd 438a 42bd 35bb 95bd
000002f0: 7217 0d3d 0a89 9b3d 5b62 21be 7e4f dabd
00000300: b139 9239 06b9 a33d 4daf af3d 3a01 01be
00000310: f813 39be 6643 7ebd 7635 50bd 4ed9 8d3d
00000320: ec6e c63d 0e08 de3d 281f b93d 71f6 983d
00000330: 9fb9 083e d392 653d b718 ce3d 76b6 38bd
00000340: 9ba5 5c3d 435f 143d d672 bebc da01 47bd
00000350: 4b85 99bd 0c33 f53c d95c 04bc e330 04be
00000360: 1bf0 61bd 954c 96bd 78a9 78bd 9509 04be
00000370: 472d cdbd faf0 c0bd 9300 15be 625a 63be
00000380: 2ce4 ebbd 8b62 4c3e 0ca6 cd3d e7d3 7c3e
00000390: a0ad a23e fbf1 4c3e 59b3 643d 0853 8abd
000003a0: c776 02bd 8399 183d aaec 1f3d 2e4f a3bd
000003b0: 55a7 f3bd 36fa d7bd ca3f cabc 19e4 61bd
000003c0: 4c4d c1bd 6bc9 57be 74a1 3fbe 976e b0bc
000003d0: a6d2 01bd 80d8 e9bb 0427 d3bd 6430 c1bd
000003e0: b664 b2bd 1c14 d7bc 239d 14bd 4596 dbbd
000003f0: 3532 c8bd 9578 08be f825 40b9 1286 b9bd

conv2.bias f4 [16]
0.90859044 -0.63960785 0.002995186 0.14280446 -0.025945403 -0.43740588 -0.19434996 1.1501573
0.23046933 -0.12730204 -0.049699362 -0.07190822 -0.24232107 0.3217676 -0.7435495 0.06570676
00000000: 6299 683f 57bd 23bf e24a 443b 553b 123e
00000010: 748b d4bc aaf3 dfbe ad03 47be 5b38 933f
00000020: 2700 6c3e 775b 02be 8f91 4bbd 9e44 93bd
00000030: 0423 78be b9be a43e 4359 3ebf 4491 863d

fc1.weight f4 [120, 400]
-0.06801164 -0.061375093 -0.021166012 -0.0019955658 -0.018340213 -0.019656671 0.008354999 -0.0054268143
-0.022652829 0.0068816226 0.046475474 0.0101488335 0.018151497 -0.027438035 -0.012699817 -0.006169163
0.013674733 -0.018667398 0.02962837 -0.0034369102 -0.015653444 -0.030830272 -0.0024164729 0.05126622
0.0033048044 0.009824267 0.012220406 -0.022408525 -0.04063793 -0.018846773 -0.012810545 -0.010136997
-0.0023790128 -0.007817667 -0.041348465 0.011653799 -0.023243843 0.018220866 -0.07137544 0.01056355
0.04476235 0.0023999475 -0.021621507 -0.007156704 0.018182319 0.020935496 0.03511232 0.027197836
0.0679157 -0.0420019 -0.060746104 -0.04745955 -0.03123678 0.01490906 0.018005038 0.03415267
-0.049676817 -0.014352863 -0.06086778 -0.02066063 -0.007934045 0.047604933 0.044052724 0.0026778295
0.007306061 0.06209569 -0.012992079 -0.047229953 -0.026309753 -0.016714998 0.00019079229 -0.04484444
-0.026133835 0.01983076 0.020213062 0.0019682543 0.02666805 -0.017276749 0.042079754 0.044293974
0.045609392 0.041240953 -0.017315134 0.016336082 -0.057368815 0.034929667 -0.017613236 -0.007650006
0.0010639512 -0.045506142 0.035020765 -0.032787945 0.004081397 0.051546905 0.0019711305 -0.04574593
-0.008658787 0.03194402 0.051495664 0.026006807 -0.018561965 0.023473369 -0.010221844 -0.043334443
-0.009581635 -0.0045139766 -0.06832441 -0.035249326 -0.02642176 -0.047675956 -0.053132247 -0.0034311744
0.024740908 -0.008892378 0.030515498 0.032254197 -0.010983945 -0.016406627 0.017400704 -0.02865921
0.053205863 0.039242562 -0.056283332 -0.030395811 -0.011107132 -0.0027121357 0.030433703 -0.0030163056
0.019081417 0.00670248 0.031020703 -0.01369195 -0.001788239 0.019331379 -0.057307824 0.02122928
-0.08131126 -0.091730736 -0.018398112 -0.023434348 0.014022412 -0.017783698 -0.014533072 -0.048358724
-0.036170863 0.052731656 0.018340169 -0.047806606 -0.0712234 -0.017643414 -0.048424665 -0.009992602
0.020461988 0.07646259 -0.017402137 0.0014936085 0.0082867695 0.066060364 0.029374754 -0.0148531385
0.025927955 -0.01831236 -0.0053586066 -0.034551308 -0.026196584 0.0232517 0.0028560823 -0.016348619
-0.01599338 0.008300386 0.019838097 -0.025428304 0.04240299 -0.012694595 -0.041294403 0.019519417
0.07166683 -0.04040509 0.018811695 0.06999489 -0.007837118 0.00047485763 0.03792655 0.016052978
0.0193444 0.009657672 0.010626325 -0.028132346 0.022540368 0.003984949 -0.032966092 -0.01866402
0.029283717 -0.042636298 -0.08387967 0.0037964885 0.024213212 0.019579493 -0.008480333 -0.0021331238
0.0052119833 -0.0426999 -0.046169076 -0.019262815 -0.06464766 -0.042117737 -0.033461336 -0.0002790735
-0.03144475 -0.037108127 0.021978972 0.034563888 -0.03317563 0.011472471 -0.04115294 -0.040681552
-0.04230784 -0.021160696 0.0012893868 0.004423074 0.002071703 0.03291752 0.03656734 0.026969152
0.015477523 0.0092341835 0.031425137 0.037407648 0.073796816 -0.025744736 0.011755508 -0.027930496
0.0076639885 0.00094550283 0.0508022 -0.006132269 0.07887705 0.052531764 -0.0016833495 0.046499833
0.008368872 0.050258685 0.045939554 0.03068372 -0.03386336 -0.000582827 0.048580788 0.004581465
-0.015636155 -0.046136968 -0.0073105413 0.013550497 0.018767536 0.019116586 -0.032731626 0.009681705
00000000: b049 8bbd 7364 7bbd 5864 adbc 0ac8 02bb
00000010: 373e 96bc 0707 a1bc 68e3 083c 6bd3 b1bb
00000020: 6d92 b9bc 3c7f e13b 115d 3e3d 4b47 263c
00000030: 73b2 943c bbc5 e0bc e512 50bc b126 cabb
00000040: fd0b 603c 5fec 98bc 32b7 f23c c93d 61bb
00000050: a73b 80bc c48f fcbc b05d 1ebb 87fc 513d
00000060: 6b95 583b f6f5 203c 1938 483c 1592 b7bc
00000070: f573 26bd 8c64 9abc 52e3 51bc a615 26bc
00000080: 36e9 1bbb ac15 00bc 025d 29bd 93ef 3e3c
00000090: df69 bebc ed43 953c 492d 92bd bd12 2d3c
000000a0: ba58 373d 7048 1d3b 961f b1bc c982 eabb
000000b0: 16f3 943c eb80 ab3c f0d1 0f3d ffcd de3c
000000c0: 6317 8b3d 2f0a 2cbd e8d0 78bd f264 42bd
000000d0: 47e4 ffbc 2145 743c 4d7f 933c ace3 0b3d
000000e0: eb79 4bbd 4528 6bbc 7e50 79bd 7b40 a9bc
000000f0: ccfd 01bc 64fd 423d a170 343d 867e 2f3b
00000100: af67 ef3b 0d58 7e3d bbdc 54bc 3274 41bd
00000110: 8d87 d7bc e4ed 88bc 6a0f 4839 ceae 37bd
00000120: a016 d6bc 1e74 a23c dd95 a53c d4fd 003b
00000130: f476 da3c f887 8dbc d25b 2c3d 996d 353d
00000140: ead0 3a3d 46ec 283d 78d8 8dbc 3fd3 853c
00000150: 90fb 6abd 6912 0f3d a249 90bc e7ac fabb
00000160: 4774 8b3a a664 3abd ef71 0f3d a74c 06bd
00000170: 3dbd 853b d922 533d 152e 013b 1660 3bbd
00000180: 96dd 0dbc bcd7 023d 1eed 523d 3a0c d53c
00000190: 430f 98bc 394b c03c 8579 27bc 757f 31bd
000001a0: 4afc 1cbc fbe9 93bb abed 8bbd 9961 10bd
000001b0: 7272 d8bc dd47 43bd 33a1 59bd 8edd 60bb
000001c0: 72ad ca3c 56b1 11bc a3fb f93c fa1c 043d
000001d0: 01f6 33bc 3167 86bc ec8b 8e3c b8c6 eabc
000001e0: 64ee 593d cfbc 203d 5a89 66bd a300 f9bc
000001f0: b0fa 35bc 16be 31bb 1a50 f93c 36ad 45bb
00000200: a250 9c3c 7aa0 db3b 211f fe3c 3354 60bc
00000210: 5863 eaba d75c 9e3c 9cbb 6abd 07e9 ad3c
00000220: 8586 a6bd 53dd bbbd a3b7 96bc 64f9 bfbc
00000230: 42be 653c 1eaf 91bc 1f1c 6ebc cc13 46bd
00000240: e627 14bd 26fd 573d 1f3e 963c dcd0 43bd
00000250: 93dd 91bd ec88 90bc f158 46bd 03b8 23bc
00000260: e69f a73c 6b98 9c3d ed8e 8ebc 2fc5 c33a
00000270: 3bc5 073c a84a 873d 53a3 f03c 945a 73bc
00000280: dd66 d43c cd03 96bc 4097 afbb ac85 0dbd
00000290: 389a d6bc 597a be3c 1c2d 3b3b 8aed 85bc
000002a0: 8d04 83bc 58fe 073c 8183 a23c 054f d0bc
000002b0: c2ae 2d3d fefc 4fbc 5224 29bd 2fe7 9f3c
000002c0: 0fc6 923d cf7f 25bd fc1a 9a3c 7b59 8f3d
000002d0: 4167 00bc 50f6 f839 df58 1b3d 8981 833c
000002e0: 2678 9e3c 363b 1e3c 0a1a 2e3c ce75 e6bc
000002f0: 94a6 b83c 2d94 823b 7407 07bd 49e5 98bc
00000300: 68e4 ef3c 66a3 2ebd 1bc9 abbd 82ce 783b
00000310: c95a c63c 2c65 a03c 18f1 0abc e1cb 0bbb
00000320: 49c9 aa3b 17e6 2ebd c91b 3dbd 0dcd 9dbc
00000330: fe65 84bd a683 2cbd c10e 09bd 9c50 92b9
00000340: 36cc 00bd b1fe 17bd 3f0d b43c dd92 0d3d
00000350: 2be3 07bd 08f7 3b3c fc8f 28bd b3a1 26bd
00000360: fc4a 2dbd 3259 adbc a400 a93a 6fef 903b
00000370: 69c5 073b 85d4 063d a3c7 153d 69ee dc3c
00000380: 7095 7d3c f94a 173c a5b7 003d c338 193d
00000390: c922 973d a0e6 d2bc 2d9a 403c 7fce e4bc
000003a0: 3222 fb3b 9fdb 773a f815 503d 33f1 c8bb
000003b0: 4a8a a13d 8c2b 573d d6a3 dcba 9c76 3e3d
000003c0: 981d 093c 0ddc 4d3d 1d2b 3c3d 6d5c fb3c
000003d0: 4eb4 0abd dcc8 18ba a6fc 463d 1d20 963b
000003e0: 6517 80bc 1efa 3cbd 448d efbb e702 5e3c
000003f0: 60be 993c 639a 9c3c 9911 06bd 04a0 1e3c

fc1.bias f4 [120]
-0.079774804 -0.049175978 0.054770164 -0.06310587 0.07947845 -0.006474171 -0.011130876 -0.027048538
-0.0152383465 0.11485279 0.17037676 -0.008261594 0.0398199 0.10730951 -0.03779516 -0.07502279
0.06406759 -0.05343121 -0.043736868 0.047620367 0.11001723 0.01807521 -0.027074577 0.0089993905
-0.034645703 0.14888345 0.25619537 -0.09041152 0.010644902 -0.0020552846 0.11239056 0.016396355
-0.022622284 0.036255483 0.05532589 0.07866658 0.08018694 -0.016368067 -0.10570482 -0.07752365
0.04562601 0.0357754 0.030255862 0.12804608 0.014868424 -0.02252866 -0.01912031 0.0060119824
0.04812644 0.046277642 0.014660982 0.02644977 -0.06403952 -0.108631834 0.12162466 -0.029872531
-0.18075855 0.18062882 -0.04078182 -0.011460378 -0.0029567897 -0.048084572 0.10488256 0.09816821
-0.14342816 -0.067155175 0.13519873 0.011416262 0.08740026 -0.006558351 0.099174306 -0.11383777
0.037987858 -0.0094046015 0.004395994 -0.0043735947 -0.030482758 0.0066631725 0.22178139 0.03791258
0.049777295 -0.013450695 0.029966062 -0.02469663 0.07749453 -0.18196636 -0.023561364 -0.01270869
-0.022336353 -0.0024341587 0.24125086 0.061659724 -0.016054036 0.16996942 0.13440697 0.07827272
0.010620924 -0.022996537 0.0018478909 -0.0046152975 0.1362057 0.0034929106 -0.045568977 -0.1819154
0.186226 -0.010899307 0.06237362 0.062933065 0.11552932 -0.019936802 0.104052134 -0.0034773995
0.041173827 0.1691559 -0.03548978 0.054770194 -0.10498056 -0.025494304 0.004522044 -0.008445833
00000000: f960 a3bd c06c 49bd ae56 603d a63d 81bd
00000010: 99c5 a23d 4825 d4bb 475e 36bc e594 ddbc
00000020: 42aa 79bc f137 eb3d 3f77 2e3e a35b 07bc
00000030: 311a 233d 17c5 db3d 19cf 1abd 8ca5 99bd
00000040: de35 833d afda 5abd 6e25 33bd 930d 433d
00000050: b750 e13d 7612 943c 81cb ddbc 2e72 133c
00000060: a7e8 0dbd e774 183e 0a2c 833e ad29 b9bd
00000070: f467 2e3c f4b1 06bb 062d e63d a651 863c
00000080: 5e52 b9bc a180 143d 679d 623d f21b a13d
00000090: 0d39 a43d 5316 86bc c57b d8bd b8c4 9ebd
000000a0: 57e2 3a3d 3a89 123d 24db f73c 831e 033e
000000b0: b19a 733c 068e b8bc 32a2 9cbc 2a00 c53b
000000c0: 3b20 453d a08d 3d3d 9e34 703c 30ad d83c
000000d0: 2727 83bd 5e7a debd 5a16 f93d 3db7 f4bc
000000e0: c518 39be c3f6 383e d60a 27bd 4fc4 3bbc
000000f0: b3c6 41bb 54f4 44bd abcc d63d 6a0c c93d
00000100: d5de 12be a788 89bd 8971 0a3e 460b 3b3c
00000110: e8fe b23d 70e7 d6bb e61b cb3d c723 e9bd
00000120: 2899 1b3d c215 1abc 450c 903b 5f50 8fbb
00000130: fab6 f9bc be56 da3b a91a 633e 394a 1b3d
00000140: 47e3 4b3d 4e60 5cbc 637b f53c 9650 cabc
00000150: 74b5 9e3d 6455 3abe c303 c1bc 1c38 50bc
00000160: bafa b6bc 6886 1fbb 770a 773e e88e 7c3d
00000170: c183 83bc 770c 2e3e fba1 093e 734d a03d
00000180: 6203 2e3c 3c63 bcbc ee34 f23a ec3b 97bb
00000190: 8279 0b3e 51e9 643b 89a6 3abd 0848 3abe
000001a0: 07b2 3e3e 0293 32bc 7b7b 7f3d 0de3 803d
000001b0: a39a ec3d 8152 a3bc 4919 d53d 15e5 63bb
000001c0: e3a5 283d 3437 2d3e bb5d 11bd b656 603d
000001d0: 0c00 d7bd 6ed9 d0bc a82d 943b 6460 0abc

fc2.weight f4 [84, 120]
0.007847709 -0.055372246 -0.023042252 0.080663234 0.080482796 0.025171833 0.065666154 0.05184895
-0.07520893 -0.051400952 -0.0275073 0.04826243 0.08479659 0.00731415 -0.095674895 -0.012675024
0.1079012 -0.04454031 -0.12606637 -0.026062468 0.07411193 0.09629662 0.07442732 0.12140694
-0.015683712 -0.0025289154 0.0007751829 -0.026430849 0.067499466 0.026757887 0.07475754 0.05899402
-0.053036436 0.02308404 0.015362194 -0.11601211 -0.089525804 -0.06561153 0.108037956 0.11896537
0.12105791 -0.098327495 0.060429007 0.08846689 0.09384183 -0.05238115 -0.03910877 -0.027362715
0.040065575 -0.087018155 0.032678552 0.07123086 0.03571296 -0.025035236 -0.0010233338 0.06113864
0.057924878 -0.010976821 0.08954792 0.055464882 0.014431984 0.0068919677 -0.14316887 -0.06794607
-0.059611034 0.14462551 0.044705417 -0.10561371 -0.03710079 -0.017837284 -0.0733214 0.017562833
-0.13613668 -0.026474562 -0.077152364 0.054508574 0.08803415 0.05695664 0.009505859 -0.060867395
-0.024666304 0.087542385 0.012514842 -0.003264225 -0.02974829 -0.08017303 0.011863418 0.040864803
0.15446319 0.008875838 -0.00759759 0.14731161 0.042713236 -0.078123726 0.06375783 0.020169929
0.11254456 0.12927629 -0.07218601 -0.14393906 0.030474303 -0.03200597 0.16673751 -0.015013923
-0.062476676 -0.09592709 -0.07144623 -0.0073404447 0.040208388 -0.07917111 -0.010433626 0.05683929
-0.05447845 -0.01999765 0.068518095 -0.11909562 -0.10108002 -0.06745417 0.14751653 0.032894466
0.0903168 0.010876409 0.07553865 -0.05030579 -0.06028078 -0.090905495 -0.07974152 0.094474755
0.006844152 0.11260534 0.025430236 -0.04298835 -0.039987527 0.03781371 -0.05710006 0.015691068
0.0252517 0.07576448 0.040725917 -0.03710128 0.03558745 0.010325172 0.019206772 -0.005749283
0.0075255535 0.027956448 -0.059349597 -0.052898843 -0.06575093 0.082082376 -0.059195314 0.029445142
-0.040449735 0.09340585 -0.017883537 0.013084666 -0.033624772 0.070592254 -0.1313418 0.06986996
-0.01260339 0.076408595 0.041621525 -0.089051664 -0.064288124 -0.059640698 0.07788941 0.0028913948
0.064836696 0.08767318 -0.049569502 0.020617887 -0.03295804 0.03380289 -0.0030478055 0.057443142
0.056271262 0.007902243 -0.071558714 0.036875155 0.030895418 0.025852036 -0.041556757 -0.05603276
-0.038872935 0.016242217 -0.030780628 0.08717677 -0.047766857 0.13840371 -0.04867241 -0.052518096
-0.025200509 -0.0041008927 0.085420825 0.022878615 0.026760012 -0.091869906 0.0048456574 0.014985774
0.023956563 -0.004400972 0.08457251 -0.042310454 -0.068541676 -0.011100869 -0.018981332 0.09007327
-0.036928162 -0.022588437 0.04729961 0.111318745 0.12108675 0.009456491 -0.07868674 0.056569975
0.02903865 -0.06788714 0.04998304 -0.033747595 0.098288074 0.071873166 -0.014134152 -0.045567226
0.10870574 -0.076700196 -0.038699985 -0.0458443 0.10679132 0.0062946407 -0.08262952 0.012661684
0.001724126 0.042714402 0.110507466 0.12618934 -0.05162159 0.03893367 0.06350019 -0.08807075
0.003072455 -0.042000875 -0.19191292 -0.14531241 0.08293768 -0.07890813 -0.06666303 0.06374268
0.023985263 -0.013928611 0.08586411 -0.051351722 -0.07808306 0.038148616 -0.095353715 -0.07720231
00000000: ad93 003c 02ce 62bd 1bc3 bcbc c432 a53d
00000010: 2ad4 a43d 2935 ce3c fa7b 863d 915f 543d
00000020: 2407 9abd ce89 52bd fd56 e1bc d3ae 453d
00000030: d6a9 ad3d 8aab ef3b 33f1 c3bd e7aa 4fbc
00000040: 4efb dc3d e66f 36bd 8b17 01be f580 d5bc
00000050: ffc7 973d 2a37 c53d 5a6d 983d 34a4 f83d
00000060: 217b 80bc 29bc 25bb a535 4b3a 8285 d8bc
00000070: 293d 8a3d 5b33 db3c 7b1a 993d b7a3 713d
00000080: bc3c 59bd be1a bd3c b6b1 7b3c c297 edbd
00000090: 4e59 b7bd 565f 86bd 0143 dd3d 1ea4 f33d
000000a0: 36ed f73d ed5f c9bd 6884 773d 212e b53d
000000b0: 2530 c03d 9e8d 56bd 8530 20bd c627 e0bc
000000c0: cd1b 243d 9336 b2bd f2d9 053d 7ce1 913d
000000d0: c147 123d b216 cdbc 6221 86ba 836c 7a3d
000000e0: a342 6d3d 20d8 33bc e664 b73d 252f 633d
000000f0: 2174 6c3c 04d6 e13b dc9a 12be 4f27 8bbd
00000100: b32a 74bd b618 143e 071d 373d 004c d8bd
00000110: fff6 17bd 7f1f 92bc 8829 96bd eedf 8f3c
00000120: 6a67 0bbe 2ee1 d8bc 0f02 9ebd 6244 5f3d
00000130: 404b b43d 5e4b 693d 76be 1b3c 1750 79bd
00000140: fd10 cabc 6c49 b33d 0d0b 4d3c 9cec 55bb
00000150: b0b2 f3bc c231 a4bd c85e 423c da61 273d
00000160: 992b 1e3e f66b 113c 34f5 f8bb dbd8 163e
00000170: 13f4 2e3d 55ff 9fbd 7793 823d 683b a53c
00000180: c37d e63d 0161 043e 42d6 93bd c364 13be
00000190: 3fa5 f93c b118 03bd 3dbd 2a3e f5fc 75bc
000001a0: 8be7 7fbd 6c75 c4bd 6752 92bd 1d88 f0bb
000001b0: 8db1 243d 7724 a2bd cdf1 2abc 51d0 683d
000001c0: cc24 5fbd 1dd2 a3bc 3753 8c3d 68e8 f3bd
000001d0: 0b03 cfbd 6925 8abd 930e 173e 59bc 063d
000001e0: 04f8 b83d f732 323c 02b4 9a3d 720d 4ebd
000001f0: fbe8 76bd a92c babd 864f a3bd fb7b c13d
00000200: e944 e03b a19d e63d 1253 d03c 8d14 30bd
00000210: f6c9 23bd 8ce2 1a3d c1e1 69bd 8e8a 803c
00000220: a7dc ce3c 682a 9b3d 38d0 263d 83f7 17bd
00000230: 25c4 113d e92a 293c 8557 9d3c 7b64 bcbb
00000240: eb98 f63b ec04 e53c 9018 73bd 75ac 58bd
00000250: 6ca8 86bd ce1a a83d c976 72bd f036 f13c
00000260: 9fae 25bd 914b bf3d 7f80 92bc 1161 563c
00000270: 21ba 09bd ac92 903d 777e 06be fb17 8f3d
00000280: 737e 4ebc 1c7c 9c3d 557b 2a3d b860 b6bd
00000290: 7ea9 83bd ce49 74bd 7c84 9f3d 8e7d 3d3b
000002a0: 1ac9 843d ff8d b33d 6409 4bbd d8e6 a83c
000002b0: 02ff 06bd e674 0a3d b1bd 47bb 8049 6b3d
000002c0: b27c 663d 6978 013c 608d 92bd 670a 173d
000002d0: 6318 fd3c a6c7 d33c 6b37 2abd 9b82 65bd
000002e0: 3a39 1fbd 660e 853c a827 fcbc bc89 b23d
000002f0: 2ea7 43bd b4b9 0d3e b95c 47bd 371d 57bd
00000300: 4c71 cebc c860 86bb 1df1 ae3d ef6b bb3c
00000310: d037 db3c 4a26 bcbd 52c8 9e3b e486 753c
00000320: 8e40 c43c 0736 90bb 5a34 ad3d ba4d 2dbd
00000330: 945f 8cbd 6be0 35bc bd7e 9bbc 5678 b83d
00000340: fc41 17bd 630b b9bc 3cbd 413d 15fb e33d
00000350: 54fc f73d 66ef 1a3c 8326 a1bd ebb5 673d
00000360: 77e2 ed3c 6a08 8bbd 04bb 4c3d eb3a 0abd
00000370: 424b c93d 3d32 933d ee92 67bc b3a4 3abd
00000380: 1da1 de3d fe14 9dbd e083 1ebd 3cc7 3bbd
00000390: 68b5 da3d 4643 ce3b aa39 a9bd f472 4f3c
000003a0: 12fc e13a 4cf5 2e3d bd51 e23d c737 013e
000003b0: 2971 53bd e978 1f3d 630c 823d 705e b4bd
000003c0: 3e5b 493b 1c09 2cbd d284 44be c7cc 14be
000003d0: 3bdb a93d 969a a1bd a086 88bd 868b 823d
000003e0: be7c c43c d434 64bc 86d9 af3d 2f56 52bd
000003f0: 03ea 9fbd b941 1c3d cf48 c3bd 3f1c 9ebd

fc2.bias f4 [84]
-0.0681813 0.02073812 0.32785985 0.24582994 -0.09112277 0.14972144 0.15186809 -0.002537159
-0.038879648 -0.0795197 -0.0075994334 -0.081106424 0.0056853117 0.004641341 0.027494194 -0.0682281
0.06686158 -0.07140182 0.103530675 -0.005105525 0.13594648 0.07667087 -0.028828152 0.11496666
-0.08197517 -0.08319753 0.05984043 0.014583726 0.046479225 0.04524264 0.053563643 0.0139282495
-0.10010845 0.1348868 0.4476802 0.26217836 -0.04358693 0.033244383 0.01784765 -0.1058811
0.36089793 -0.098629154 -0.033939328 0.26401135 0.09338103 0.14092223 -0.098393254 0.13529691
0.22248076 -0.07194544 0.025357097 0.03294317 -0.12033508 0.39475095 0.26029763 0.041974183
0.17066133 -0.12070558 0.015210503 0.021186523 0.045533117 -0.1376879 -0.017188001 0.031696163
-0.0019930878 0.13082142 0.3944996 0.07848074 -0.046220023 0.11612892 0.029926818 0.015379083
0.05771934 -0.08272631 0.035635963 0.01529246 -0.09187795 0.13330634 -0.027894523 -0.06476773
-0.04909473 0.05337905 0.29912555 0.123368286
00000000: a3a2 8bbd fde2 a93c 3fdd a73e d8ba 7b3e
00000010: 939e babd 9450 193e 4f83 1b3e 7746 26bb
00000020: 4440 1fbd 39db a2bd ab04 f9bb 201b a6bd
00000030: da4b ba3b 6416 983b 813b e13c 2dbb 8bbd
00000040: b9ee 883d 1e3b 92bd e407 d43d 3f4c a7bb
00000050: 8e35 0b3e 9e05 9d3d 0429 ecbc a473 eb3d
00000060: 99e2 a7bd 7763 aabd 3d1b 753d 95f0 6e3c
00000070: 0061 3e3d 5950 393d 8d65 5b3d 5033 643c
00000080: a905 cdbd c41f 0a3e 5736 e53e 3e3c 863e
00000090: 3588 32bd 432b 083d 3c35 923c 31d8 d8bd
000000a0: 9dc7 b83e 15fe c9bd f703 0bbd 7f2c 873e
000000b0: 8e3e bf3d eb4d 103e 6782 c9bd 468b 0a3e
000000c0: ffd1 633e 2158 93bd b0b9 cf3c 6bef 063d
000000d0: 3d72 f6bd cc1c ca3e bb45 853e 1fed 2b3d
000000e0: d8c1 2e3e 7d34 f7bd 7935 793c 5c8f ad3c
000000f0: ef80 3a3d 0ffe 0cbe dacd 8cbc d6d3 013d
00000100: 779e 02bb 0df6 053e dafb c93e 83ba a03d
00000110: 3551 3dbd 00d5 ed3d 1629 f53c 8df8 7b3c
00000120: 1d6b 6c3d 696c a9bd 04f7 113d 3a8d 7a3c
00000130: 822a bcbd 7581 083e 0e83 e4bc f2a4 84bd
00000140: 8e17 49bd fea3 5a3d fc26 993e 83a8 fc3d

fc3.weight f4 [10, 84]
-0.009116684 -0.012550404 0.2138469 -0.027166495 0.131773 -0.08387914 -0.12996988 -0.21370038
0.07772476 0.08949946 -0.10050843 -0.06546138 -0.038537413 0.1720292 0.17510027 -0.1369292
-0.06585071 -0.04384286 -0.08198748 -0.06487741 -0.16729163 0.1307018 0.10476062 0.11693313
-0.06417201 0.023386477 -0.080924734 0.002062013 -0.13859086 -0.020750502 -0.18278976 0.0868388
-0.033923276 0.02326621 -0.17323984 -0.004622144 -0.06649 -0.061514 0.036134392 0.075821444
-0.17026117 0.17739847 0.033882406 -0.30977106 0.21091306 0.212621 0.09270495 0.1318591
-0.19665913 -0.0906958 -0.028512903 0.105251975 0.22244574 0.045181364 0.0689144 -0.097950384
-0.0024017454 0.0803204 0.1743236 0.118004836 0.024665898 0.026547343 0.07358627 0.030612774
0.0068283356 0.3133343 -0.29291004 -0.008624083 0.030301454 0.26583233 0.25716335 -0.13383484
0.35112205 0.06543306 0.012619925 -0.10287393 -0.05730195 -0.09465996 -0.05583162 0.04295259
-0.07798381 -0.040802233 0.23616034 -0.13396858 0.13261072 0.058345404 -0.14418277 0.14384861
0.07135148 -0.18124698 0.22926971 0.23065287 0.06020044 0.02626735 0.047367647 -0.08800241
0.21248244 0.103968486 0.10926537 0.24379928 0.14764346 0.18275973 -0.1384481 0.104238756
-0.0031347545 -0.00055545755 0.045688804 0.24934071 0.07869138 0.17648944 0.055201814 0.038202554
0.17698173 0.06609646 -0.011647874 -0.09537066 -0.10311732 -0.18561825 -0.047661662 -0.26624665
-0.042417023 -0.18239471 -0.07107334 0.10441601 -0.24819706 -0.091794185 0.06830497 -0.111555055
0.17747733 -0.23548864 0.09112768 -0.11454609 -0.23124518 0.13378018 0.07215716 -0.03235027
-0.044000152 -0.3370667 -0.36568436 -0.027959352 -0.07038464 0.13527673 0.20877406 0.11438526
-0.034945328 -0.12910673 0.05280864 -0.014017068 0.03377814 0.1501172 -0.22364484 0.038816996
-0.07436017 -0.18490489 -0.1057549 -0.12985246 0.3132579 0.07786052 -0.05253651 0.029437734
-0.004718653 0.08005827 -0.043656006 -0.09713243 0.20195451 0.10164211 -0.13923733 -0.08597239
-0.09348147 0.049286682 0.05755618 0.031387344 0.090714745 -0.18586323 -0.036251333 -0.08896389
0.057015695 0.023429401 -0.050699137 -0.07294687 -0.1804605 -0.059060413 0.08336816 0.026787417
-0.129 0.061524697 0.11799893 0.05332841 0.020861197 -0.09420178 -0.11169342 -0.09312571
-0.02048627 -0.111357026 -0.046390098 0.015279984 0.13633351 -0.048745353 -0.027870432 0.11986825
0.100818865 0.23266761 -0.004929128 0.018965509 -0.1539661 0.074951544 -0.07399155 0.025109202
0.27545625 0.007984388 -0.00023711692 0.120403804 0.00993257 0.25085413 -0.063486435 0.22846952
-0.091278 0.03665126 -0.053202756 -0.1461732 0.034876972 0.3070316 0.076643206 -0.15944925
0.11177922 0.091651835 -0.14132352 0.09033386 0.0004202795 -0.0060436716 0.085861415 -0.043989792
-0.07690993 -0.18385074 0.3208764 0.10049672 -0.035719432 0.1609439 0.24368718 -0.020421192
-0.10488448 -0.02460488 0.05624028 0.085159056 0.017026436 0.014421619 -0.02515342 -0.057851553
0.033147242 0.15851255 0.038181353 -0.08066225 -0.021813871 0.054828946 0.17246595 -0.23084389
00000000: 255e 15bc 36a0 4dbc affa 5a3e 458c debc
00000010: 80ef 063e d4c8 abbd d316 05be 46d4 5abe
00000020: 292e 9f3d 7e4b b73d 5dd7 cdbd 9e10 86bd
00000030: 68d9 1dbd 6c28 303e 7c4d 333e 2b37 0cbe
00000040: bddc 86bd 9294 33bd 0de9 a7bd 73de 84bd
00000050: 7f4e 2bbe b1d6 053e bc8c d63d a37a ef3d
00000060: 9d6c 83bd ff94 bf3c debb a5bd d622 073b
00000070: c3ea 0dbe f5fc a9bc 3d2d 3bbe 8ad8 b13d
00000080: 22f3 0abd c798 be3c c965 31be 5b75 97bb
00000090: e92b 88bd 1bf6 7bbd a801 143d 4648 9b3d
000000a0: f258 2ebe f2a7 353e 47c8 0a3d 509a 9ebe
000000b0: 98f9 573e 52b9 593e 18dc bd3d 1206 073e
000000c0: 0361 49be b8be b9bd e493 e9bc 598e d73d
000000d0: d1c8 633e 1810 393d fe22 8d3d 369a c8bd
000000e0: 9a66 1dbb 067f a43d e381 323e 85ac f13d
000000f0: 2310 ca3c d079 d93c 66b4 963d a4c7 fa3c
00000100: 3bc0 df3b 5a6d a03e 4ef8 95be 074c 0dbc
00000110: c13a f83c 2d1b 883e eaaa 833e 000c 09be
00000120: 45c6 b33e c501 863d cdc3 4e3c 91af d2bd
00000130: 73b5 6abd 15dd c1bd b2af 64bd 0eef 2f3d
00000140: fab5 9fbd 3e20 27bd 04d4 713e 0f2f 09be
00000150: 1bcb 073e 97fb 6e3d a6a4 13be 0d4d 133e
00000160: ba20 923d cf98 39be aec5 6a3e 4430 6c3e
00000170: bd94 763d a02e d73c 9404 423d 9c3a b4bd
00000180: ff94 593e 6eed d43d 86c6 df3d 85a6 793e
00000190: d92f 173e 5e25 3b3e 57c5 0dbe 217b d53d
000001a0: 7470 4dbb 209c 11ba 2f24 3b3d 2c53 7f3e
000001b0: f228 a13d a6b9 343e 4c1b 623d 487a 1c3d
000001c0: b33a 353e 955d 873d b9d6 3ebc b151 c3bd
000001d0: 2c2f d3bd b612 3ebe e038 43bd 7b51 88be
000001e0: 79bd 2dbd aec5 3abe e68e 91bd 10d8 d53d
000001f0: 5f27 7ebe 97fe bbbd 7ae3 8b3d fa76 e4bd
00000200: 9ebc 353e ef23 71be 26a1 ba3d 2497 eabd
00000210: 89cb 6cbe acfd 083e 22c7 933d b781 04bd
00000220: 8139 34bd 0294 acbe fb3a bbbe 030b e5bc
00000230: d225 90bd fc85 0a3e dec8 553e d242 ea3d
00000240: d522 0fbd 8e34 04be df4d 583d d8a7 65bc
00000250: f25a 0a3d 53b8 193e 2703 65be 92fe 1e3d
00000260: 254a 98bd b557 3dbe 0696 d8bd 0bf8 04be
00000270: 5763 a03e 5675 9f3d 8630 57bd 6727 f13c
00000280: ee9e 9abb 97f5 a33d a4d0 32bd 5eed c6bd
00000290: 2acd 4e3e bd29 d03d 3b94 0ebe 4b12 b0bd
000002a0: 3773 bfbd d5e0 493d 07c0 6b3d 0490 003d
000002b0: a7c8 b93d ee52 3ebe 477c 14bd b332 b6bd
000002c0: 4a89 693d 04ef bf3c e6a9 4fbd 2b65 95bd
000002d0: a3ca 38be 55e9 71bd edbc aa3d 4971 db3c
000002e0: 9318 04be 5201 7c3d 6ca9 f13d e46e 5a3d
000002f0: 1ae5 aa3c ddec c0bd 85bf e4bd b1b8 bebd
00000300: d2d2 a7bc 270f e4bd 8b03 3ebd e658 7a3c
00000310: 039b 0b3e 35a9 47bd 8850 e4bc 7c7d f53d
00000320: 1f7a ce3d 6b40 6e3e 8684 a1bb 8e5d 9b3c
00000330: 4aa9 1dbe 3280 993d e288 97bd d0b1 cd3c
00000340: 9a08 8d3e f3d0 023c 97a2 78b9 4596 f63d
00000350: 38bc 223c f46f 803e 2d05 82bd eaf3 693e
00000360: f6ef babd a21f 163d 22eb 59bd 6dae 15be
00000370: 28db 0e3d 3f33 9d3e 1df7 9c3d aa46 23be
00000380: 81ec e43d f5b3 bb3d 1db7 10be f500 b93d
00000390: f658 dc39 fe09 c6bb 1cd8 af3d a42e 34bd
000003a0: f482 9dbd 5e43 3cbe e949 a43e 39d1 cd3d
000003b0: 8a4e 12bd 7ace 243e 2289 793e 584a a7bc
000003c0: adcd d6bd 2c90 c9bc 355c 663d df67 ae3d
000003d0: 067b 8b3c a748 6c3c 8c0e cebc c0f5 6cbd
000003e0: 67c5 073d 1d51 223e 0d64 1c3d 4032 a5bd
000003f0: 01b3 b2bc 5194 603d ea9a 303e 5762 6cbe

fc3.bias f4 [10]
-0.45570853 -0.41459826 0.1128413 0.3022919 0.62454945 -0.10464675 0.4656927 -0.20914067
0.09458174 -0.2651448
00000000: a152 e9be 3946 d4be 5719 e73d 01c6 9a3e
00000010: 79e2 1f3f 0951 d6bd 466f ee3e f928 56be
00000020: 12b4 c13d 0fc1 87be
